two_phase_training/TPT-2/TPT-2-US_parameters.pth (torch, 104775 bytes, 10 tensors)

linear_relu_stack.0.weight f4 [64, 180]
0	0xbeff84ae	-0.49905914
1	0x3f6588f7	0.89662117
2	0x3f2a6583	0.66561145
3	0xbf197fc7	-0.599606
4	0xbcf741ce	-0.030182745
5	0xbf83dd05	-1.0301825
6	0xbd140a6c	-0.03614275
7	0xbd1ad9db	-0.03780542
8	0xbd1de040	-0.03854394
9	0xbd8ea19d	-0.06964419
10	0x3c5b0c54	0.0133696385
11	0x3ce822fb	0.028336992
12	0xbd15e6fa	-0.03659723
13	0x3d289606	0.0411587
14	0x3be3279d	0.0069322125
15	0xbc7bd49f	-0.015370517
16	0x3d28654c	0.04111223
17	0x3c05dca5	0.008170282
18	0x3991891d	0.00027758713
19	0x3cd9138d	0.02649858
20	0x3bef31d1	0.0072996398
21	0xbc069574	-0.008214343
22	0x3c9587e7	0.01825328
23	0x3c671630	0.014104411
24	0xbbebc0ad	-0.0071945996
25	0x3c3d949f	0.011571079
26	0x3ab371c0	0.0013690516
27	0x3bdc138f	0.0067161988
28	0xb8e0c472	-0.00010717743
29	0xbc0394bb	-0.008031066
30	0x3c8dce90	0.01731041
31	0xbb34d7e0	-0.0027594492
32	0xbcbb15b2	-0.022837494
33	0x3c0d2bc5	0.0086163925
34	0x3b9cc47d	0.0047841654
35	0xbca5ff5a	-0.020263363
36	0x3c141403	0.009037974
37	0xbbacefa4	-0.005277591
38	0x39f93286	0.00047530624
39	0x3c6ddce6	0.014517998
40	0xbbfb34b0	-0.007666193
41	0xbb75ff26	-0.0037536114
42	0x3c6a615e	0.014305441
43	0x3bc6ed7e	0.0060707917
44	0xbbcda818	-0.006276142
45	0x3be5448c	0.006996697
46	0x3bda8337	0.006668474
47	0x3b8c2c6f	0.004277758
48	0xbf043fdb	-0.51659936
49	0xbe2d1d12	-0.1690562
50	0x4017110d	2.3604157
51	0xbcd65972	-0.026165698
52	0x3eeb6048	0.45971894
53	0x3ef4aa31	0.47786096
54	0x4018c17d	2.3868096
55	0x3f926310	1.1436481
56	0xbd978479	-0.07398314
57	0xbe312689	-0.17299856
58	0xbef9accf	-0.48764655
59	0xbf1a0166	-0.60158384
60	0x3e4c271a	0.19936791
61	0xbdfd0ba7	-0.12355738
62	0xbe40be09	-0.18822493
63	0xbe38ec23	-0.18058829
64	0x3e464421	0.19361927
65	0xbcce9de4	-0.025221772
66	0xbd2b09a9	-0.04175726
67	0xbe10682c	-0.14102238
68	0x3e796c0d	0.24357624
69	0xbd94bcd6	-0.0726258
70	0x3da29c98	0.07940024
71	0xbd7ba343	-0.061434995
72	0x3e268243	0.16260628
73	0xbd873f62	-0.06603886
74	0x3d3e8b3c	0.046519503
75	0xbdab8258	-0.083744705
76	0x3d69a082	0.057037838
77	0xbe2b8758	-0.16750848
78	0x3c543df8	0.012954228
79	0xbdf01901	-0.11723519
80	0x3cc980d6	0.024597567
81	0xbcfc8709	-0.030826109
82	0x3cdc7ee9	0.026915984
83	0xbdaaf45c	-0.08347389
84	0xbde85492	-0.113442555
85	0x3d6c7abf	0.057734247
86	0x3cf51242	0.029915933
87	0xbd61089e	-0.05493986
88	0xbe2851ec	-0.164375
89	0x3e323353	0.17402391
90	0x3deb826a	0.11499484
91	0x3b93c89a	0.0045099976
92	0xbdf510ad	-0.11966071
93	0x3dc606e4	0.09669283
94	0x3d8386b2	0.064221755
95	0x3d43bf31	0.047789756
96	0xbd802b5d	-0.06258271
97	0x3d8e369d	0.069440104
98	0x3d91d4d8	0.07120675
99	0x3c93449f	0.017977057
100	0xbd0e57f7	-0.03475186
101	0x3ca6fcb3	0.020384168
102	0x3cb7a531	0.022417637
103	0xbc8fbe50	-0.017546803
104	0x3bae1eb7	0.00531372
105	0x3db84846	0.0899816
106	0x3cc17406	0.023614895
107	0x3d5fe3c9	0.054660592
108	0xbd5985a0	-0.05310595
109	0x3d54f24e	0.051988892
110	0x3d5ea5c7	0.054357316
111	0xbbe9430b	-0.007118588
112	0xbd8ec032	-0.06970252
113	0x40544481	3.3166811
114	0x3f81f071	1.0151502
115	0x4033b5ad	2.8079636
116	0x3d749015	0.05970772
117	0xbe3a1e74	-0.1817568
118	0xbeac5b43	-0.33663377
119	0xbea94366	-0.33059233
120	0x3de0f3cc	0.109840006
121	0x3e77261a	0.24135628
122	0xbf8ad2cb	-1.0845579
123	0x3dc15595	0.094401516
124	0x3de4d889	0.11174113
125	0x3b05fb37	0.0020443925
126	0x3dfe8181	0.12427045
127	0x3eacfdcb	0.3378738
128	0x3d1e5636	0.038656436
129	0xbe73b157	-0.23798119
130	0xbaf6affb	-0.0018820757
131	0x3e278953	0.16360979
132	0x3d181110	0.037125647
133	0xbe3708c2	-0.17874435
134	0x3d3deca7	0.046368267
135	0x3dc332e6	0.095311925
136	0xbdbb27ad	-0.09138427
137	0xbd52049d	-0.05127393
138	0x3de26fa0	0.11056447
139	0x3e00a62f	0.12563394
140	0xbd608f60	-0.054824233
141	0x3d3b232f	0.04568785
142	0x3e0d9e82	0.13829997
143	0x3e07d02c	0.13263005
144	0xbd825265	-0.06363372
145	0xbd068301	-0.03283978
146	0x3df01fd0	0.11724818
147	0x3d53c677	0.051702943
148	0x3c7d6cbe	0.015467821
149	0xbd6d6e0c	-0.057966277
150	0xbbdd33e3	-0.00675057
151	0x3d246451	0.04013473
152	0xbc7e5ed4	-0.0155255385
153	0xbd0e4efb	-0.03474329
154	0xbd1e675d	-0.038672794
155	0x3d5b3a37	0.053522315
156	0x3dcc7f1e	0.09985183
157	0x3c07c7e7	0.0082874065
158	0xbd8bd760	-0.06828189
159	0x3d8a908f	0.067658536
160	0x3d9834c4	0.07431939
161	0x3d8a1510	0.067422986
162	0xbca28bf6	-0.01984213
163	0x3c4b5986	0.012411481
164	0x3dcbf326	0.09958486
165	0x3dc3f69d	0.09568522
166	0x3d563c15	0.052303392
167	0x3cb52169	0.022110658
168	0x3cda7f9a	0.026672173
169	0x3dd62ac4	0.10457376
170	0x3db5c362	0.08875157
171	0x3c86170e	0.016368415
172	0x3dad2ed9	0.08456201
173	0x3d1c37da	0.0381392
174	0x3d3c192d	0.045922447
175	0xbabb9b82	-0.0014313313
176	0x3d033d52	0.0320409
177	0x3dac5f1a	0.08416577
178	0x3d225a31	0.039636794
179	0x3c8e7df8	0.017394051
180	0xbd920a2a	-0.07130845
181	0x3fa78bfa	1.3089592
182	0x3e91bff1	0.28466752
183	0xbe9635ea	-0.29338008
184	0x3fc73953	1.5564369
185	0x3eae4180	0.34034348
186	0x3e8548a9	0.26031998
187	0x3e0cc9e3	0.13748889
188	0xbc7d9f3a	-0.015479857
189	0x3ddcee61	0.10787655
190	0xbcd0aa61	-0.025471868
191	0xbdb33bed	-0.08751664
192	0x3d800bad	0.06252227
193	0xbc22265d	-0.009896842
194	0xbd29c2c1	-0.041445497
195	0xbbd39dd1	-0.006458022
196	0xbcd96478	-0.026537165
197	0xbd087faf	-0.033324894
198	0xbcbe5d54	-0.023237862
199	0xbd1a9aa9	-0.03774515
200	0xbd2745d3	-0.040838074
201	0xbcce7bbb	-0.025205484
202	0xbd3162a4	-0.04330696
203	0xbd0d5a8b	-0.034510177
204	0xbc989404	-0.018625267
205	0xbd51c3dd	-0.05121218
206	0xbccf2c4b	-0.025289675
207	0xbc4e3e74	-0.012588132
208	0xbd142ddd	-0.03617655
209	0xbbf13b42	-0.0073618004
210	0xbc6d3b4b	-0.014479469
211	0xbc8f24b0	-0.017473549
212	0x3b5fda1a	0.0034157098
213	0xbc7df6d5	-0.015500744
214	0xbbbe7cfe	-0.00581324
215	0xbb24e1a2	-0.0025158902
216	0xbbb9567f	-0.005656063
217	0xbad58275	-0.001628949
218	0xbb59867b	-0.003319173
219	0xbb89fb8f	-0.0042108963
220	0xbaa9840d	-0.0012933031
221	0xbb7c6f2c	-0.0038518412
222	0xbb679b55	-0.0035340388
223	0x3ba47e84	0.0050199647
224	0xbb9058ff	-0.0044051404
225	0xbb42b704	-0.0029711137
226	0x3b4fe3cb	0.0031721469
227	0xbbfbafc9	-0.0076808673
228	0x3efe321d	0.49647608
229	0xbf1a0d73	-0.6017677
230	0x40093105	2.143617
231	0x3ea6996c	0.32538927
232	0x3f691832	0.91052544
233	0xbfdb90eb	-1.71536
234	0x3fc3c89d	1.5295597
235	0x3ef4ddfd	0.47825614
236	0x3f24be4b	0.64352864
237	0x3e108410	0.14112878
238	0x3f18df09	0.59715325
239	0x3ebf4fb7	0.37365505
240	0x3e855055	0.2603785
241	0x3e5a08d5	0.21292432
242	0x3ebd5587	0.36979315
243	0x3dff32b4	0.12460843
244	0x3dfc15ca	0.123088434
245	0x3e49e962	0.19717935
246	0x3e12d4da	0.14339009
247	0xbc3b34b1	-0.011426137
248	0x3d19ce3f	0.037550207
249	0x3e0570f9	0.13031377
250	0x3c49dff0	0.012321457
251	0x3ca1a227	0.01973064
252	0xbc3ba462	-0.011452766
253	0x3df6be2c	0.12047991
254	0x3cbb25d0	0.022845179
255	0xbca08aea	-0.01959749

linear_relu_stack.0.bias f4 [64]
0	0x3fc1a8b2	1.5129607
1	0xbf8abcee	-1.0838907
2	0x3f58156b	0.8440768
3	0x3e712338	0.23548591
4	0xbeb5f48e	-0.35538143
5	0x3f40980d	0.7523201
6	0xbecdc920	-0.4019251
7	0x3fb7a96e	1.4348581
8	0x3f9a7ac1	1.2068712
9	0xbf123446	-0.5711101
10	0x3e7110fd	0.23541637
11	0x3f930b43	1.1487812
12	0x3e97d501	0.29654697
13	0xbe3ed089	-0.18634237
14	0xbe20e598	-0.15712583
15	0xbdbcb8c8	-0.09214932
16	0xbf0a9125	-0.5412772
17	0x3eee52b6	0.46547478
18	0xbf1725d7	-0.59042114
19	0xbed70b80	-0.4200096
20	0x3eec0609	0.46098354
21	0x3edee25b	0.4353207
22	0xbf05a702	-0.5220796
23	0xc0014eda	-2.0204377
24	0xbdb8b84f	-0.09019529
25	0x3f4eccc9	0.8078123
26	0x3ff912dd	1.9458882
27	0x3e1e6a2d	0.1547019
28	0xbeb38d6b	-0.3506883
29	0x3f0c000b	0.54687566
30	0xc001daba	-2.028975
31	0x3e635a24	0.22202355
32	0xbf2ca0d1	-0.67432886
33	0x3f8e6b7f	1.1126555
34	0xc027ce21	-2.621956
35	0xbdd6c52d	-0.10486827
36	0xbf9b2ffc	-1.2124019
37	0x40043ec2	2.0663304
38	0xbf4be0c3	-0.79639834
39	0xc015662b	-2.3343608
40	0x3f5af0a1	0.8552342
41	0xc0043e77	-2.0663126
42	0xbfb572d1	-1.4175664
43	0x3f7133a8	0.94219446
44	0xbfd96e14	-1.6986718
45	0xbd87f0ac	-0.066377014
46	0xbf3f4370	-0.74712276
47	0xbeac9fe4	-0.33715737
48	0xbf2b63d3	-0.66949195
49	0x3ee70845	0.45123497
50	0x3e31de98	0.17370069
51	0xbf2f7176	-0.685325
52	0xc0344dda	-2.8172517
53	0xc0640ba6	-3.563211
54	0x3e7d3c8a	0.24730125
55	0xc00b5154	-2.1768389
56	0x3f5cf718	0.86314535
57	0xbf61877c	-0.8809736
58	0xbf34710a	-0.70484984
59	0xbfda336c	-1.7046943
60	0x3e91d66d	0.28483906
61	0xbf11664e	-0.5679673
62	0xbf5a4393	-0.8525936
63	0x3d297860	0.041374564

linear_relu_stack.3.weight f4 [64, 64]
0	0xbe0eca4a	-0.13944355
1	0xbe962682	-0.29326254
2	0x3c58eaeb	0.013239603
3	0x3c9fc35c	0.019502334
4	0x3ca5a64a	0.020220894
5	0xbba91808	-0.0051603355
6	0x3cfa453c	0.030550592
7	0xbd96ee55	-0.07369677
8	0x3d7a073b	0.06104205
9	0x3dbc20b4	0.09185925
10	0xbe5763c6	-0.21034154
11	0xbe9d2355	-0.3069102
12	0xbdef238a	-0.116767004
13	0xbdd6668b	-0.10468777
14	0x3d14611b	0.03622542
15	0xbeff407b	-0.49853882
16	0x3d89a5b3	0.06721058
17	0x3e211017	0.15728794
18	0xbe41fede	-0.1894488
19	0xbc68d700	-0.014211416
20	0x3b570c46	0.0032813712
21	0x3e513c72	0.20433214
22	0x3d975573	0.07389345
23	0xbd654b5a	-0.055980064
24	0xbbd07714	-0.0063618515
25	0x3eebacaf	0.46030185
26	0x3d8bd90d	0.068285085
27	0xbb668120	-0.003517218
28	0xb9d03394	-0.0003971128
29	0x3f89a3fe	1.0753171
30	0xbd8348c6	-0.06410365
31	0x3dfdacc2	0.123864666
32	0x3d81b01e	0.0633242
33	0x3ddec963	0.10878255
34	0x3aa5b178	0.0012641391
35	0xbf317875	-0.6932443
36	0xbc35e469	-0.0111018205
37	0xbef41a5a	-0.47676355
38	0xbca14685	-0.019686947
39	0xbc24ab7d	-0.010050652
40	0xbc238cb6	-0.009982279
41	0x3cbcb167	0.02303381
42	0x3c82f8ce	0.01598778
43	0xbdfc1a7c	-0.12309739
44	0x3cdfe30e	0.027329948
45	0x3c9dbecf	0.019256024
46	0xbc375b07	-0.011191136
47	0x3dc43419	0.09580249
48	0xbd72f662	-0.059317
49	0x3d2dc7fe	0.042427056
50	0x3ee92634	0.4553696
51	0x3e4ab1b9	0.19794358
52	0xbba1fddd	-0.004943593
53	0x3ca54ace	0.020177271
54	0xbc44adff	-0.0120043745
55	0x3d07e2cf	0.033175286
56	0x3d4b6af9	0.049662564
57	0xbc881c7f	-0.01661515
58	0x3e2d4628	0.16921294
59	0xbcbc1c35	-0.022962669
60	0x3fefb9c8	1.8728571
61	0xbde0c382	-0.1097479
62	0x3e50853a	0.20363322
63	0x3cf61200	0.03003788
64	0x3e68b987	0.22727023
65	0x3e5fa0f0	0.21838737
66	0xbde6d59c	-0.112712115
67	0x3ce2d1bd	0.027687902
68	0xbe1273b4	-0.1430195
69	0xbf72091c	-0.9454515
70	0xbe5d8069	-0.21631016
71	0x3ed9af5d	0.42516604
72	0xbc6fb456	-0.014630398
73	0xbde3385b	-0.11094733
74	0x3e46e83d	0.1942453
75	0xbdb8f6c0	-0.09031439
76	0xbd115c0a	-0.035488166
77	0xbec6c3c6	-0.38821238
78	0xbde24c1c	-0.11049673
79	0x3e844731	0.25835565
80	0xbe46aed8	-0.19402635
81	0xbef9f15c	-0.48816955
82	0xbe8194ea	-0.25308925
83	0x3d1c99a8	0.038232476
84	0xbcbd771b	-0.023128083
85	0xbf07e150	-0.53078175
86	0xbecd26d1	-0.40068677
87	0x3e3aedfd	0.18254848
88	0xbb29c7bc	-0.0025906404
89	0xbf3c1a60	-0.73477745
90	0xbe7a807d	-0.24463077
91	0x3edb256c	0.42801988
92	0xbd89b152	-0.06723274
93	0xc036fe0f	-2.8592565
94	0xbce7ec14	-0.028310813
95	0xbe2ae66c	-0.16689461
96	0xbdb0a429	-0.08625061
97	0xbda5cece	-0.080960855
98	0xbe11ea1b	-0.1424946
99	0xbf008de0	-0.50216484
100	0x3da96abd	0.08272312
101	0xbd031d8e	-0.032010607
102	0xbd9d0188	-0.07666308
103	0xbd173df3	-0.036924314
104	0x3a97793f	0.001155652
105	0x3cf98843	0.030460482
106	0xbe3ac7c8	-0.18240273
107	0x3e86b694	0.2631117
108	0xbd50c21d	-0.05096637
109	0x3c463c07	0.012099273
110	0xbd2f2709	-0.042761836
111	0xbd18206a	-0.037140287
112	0x3d8de7d0	0.0692898
113	0xbf262361	-0.64897734
114	0xbe15f540	-0.14644337
115	0xbe44cb3c	-0.19218153
116	0xbe40c16f	-0.18823789
117	0xbdf49400	-0.11942291
118	0x3c8a3b9c	0.016874127
119	0x3bf2e2c8	0.0074122883
120	0xbde4e154	-0.111757904
121	0xbed5cc3d	-0.41757384
122	0x3f9faf42	1.247536
123	0xbcccbb48	-0.024991646
124	0x3f486b7d	0.78289014
125	0x3f30833a	0.68950236
126	0xbd0bd95d	-0.03414284
127	0x3d9323af	0.071845405
128	0x3d377149	0.04478577
129	0x3dc348a5	0.0953534
130	0x3e11627d	0.14197727
131	0xbdb8ec4c	-0.09029445
132	0xbd1fa903	-0.03897954
133	0xbe00a8f6	-0.12564453
134	0xbd6c07e2	-0.057624705
135	0xbe2e8010	-0.1704104
136	0x3e1e1401	0.15437318
137	0xbe11b045	-0.14227398
138	0x3e14874c	0.14504737
139	0x3e102b28	0.14078963
140	0x3b2f00c0	0.0026703328
141	0xbdfe3643	-0.12412693
142	0xbd71003b	-0.05883811
143	0xbd5c5634	-0.053793147
144	0x3eb66d41	0.3563023
145	0x3d8f77c0	0.070052624
146	0xbe70c2ab	-0.2351176
147	0xbcd1b4a5	-0.025598833
148	0xbd3f8002	-0.046752937
149	0x3e8a064b	0.26957926
150	0xbe927745	-0.2860662
151	0x3e07bf60	0.13256598
152	0xbd2b22ed	-0.041781355
153	0x3e440dfc	0.1914596
154	0x3e103dc3	0.1408606
155	0xbdab2217	-0.083561115
156	0x3d91fad3	0.07127919
157	0xc0539236	-3.305799
158	0x3d99b99f	0.075061075
159	0x3e40ac59	0.18815745
160	0xbd866d59	-0.06563825
161	0x3d9acabd	0.075582005
162	0xbe00bceb	-0.12572066
163	0xbf62f79f	-0.8865909
164	0x3bd6d8d3	0.006556609
165	0xbd21ee47	-0.03953388
166	0xbdcd5d65	-0.10027579
167	0xbdacaf2c	-0.08431849
168	0xbda9453c	-0.082651585
169	0xbe022031	-0.12707593
170	0xbb9baad1	-0.0047505875
171	0x3ea34991	0.31892064
172	0xbe48e97e	-0.1962032
173	0xbd9d3c9d	-0.07677577
174	0x3d1f1d12	0.038846083
175	0xbe25a0ff	-0.16174696
176	0x3c82a25f	0.015946565
177	0x3e769bf3	0.24082927
178	0xbeee0228	-0.4648602
179	0xbe8dd0b8	-0.27698302
180	0xbdc4e710	-0.09614384
181	0x3f0cb669	0.54965836
182	0x3d9d092f	0.07667767
183	0xbdbf745d	-0.093483664
184	0xbe0ca3b4	-0.13734323
185	0xba7c7cfb	-0.00096316607
186	0xbc85d7c9	-0.016338246
187	0xbe81816e	-0.2529406
188	0xbdb0e676	-0.08637707
189	0xbe473bea	-0.19456449
190	0xbdf7a19b	-0.12091371
191	0xbdf8c012	-0.121460095
192	0x3f022b81	0.5084763
193	0xbd5f31a3	-0.054490697
194	0x3c8d551e	0.017252501
195	0xbc87cf66	-0.016578387
196	0xbe0eee19	-0.13958015
197	0x3f0b0318	0.54301596
198	0x3cfb1bd7	0.030652924
199	0x3e83180e	0.2560429
200	0x3d97b662	0.07407834
201	0x3d2185fc	0.039434418
202	0xbb224508	-0.0024760384
203	0xbe927812	-0.2860723
204	0x3e6d2edc	0.23162407
205	0xbdd96497	-0.10614889
206	0xbdcfac70	-0.10140312
207	0xbe0efc13	-0.13963346
208	0xbe80d464	-0.2516204
209	0x3e9a6b50	0.30159998
210	0x3f0eb9db	0.5575234
211	0xbd2c5c0a	-0.042079963
212	0xbd96be0f	-0.073604695
213	0xbe5c44dc	-0.21510643
214	0xbe53b348	-0.20673859
215	0xbe2d66c0	-0.16933727
216	0x3cf40a8d	0.029790187
217	0x3e52e6d2	0.20595863
218	0x3d9aa5e7	0.075511746
219	0x3e59bb40	0.21262836
220	0xbd624bb9	-0.055247996
221	0x3f1301e4	0.5742476
222	0xbd596146	-0.053071283
223	0x3e8f5095	0.27991167
224	0xbd3b7d32	-0.045773692
225	0xbcdd927f	-0.027047394
226	0xbda4f10d	-0.08053789
227	0x3e9dc34a	0.30813056
228	0xbd3c47b0	-0.045966804
229	0xbe920182	-0.28516775
230	0xbd2e0381	-0.04248381
231	0xbd125968	-0.035729796
232	0x3ca2edc9	0.019888775
233	0xbd853747	-0.06504684
234	0x3e518182	0.2045956
235	0x3db4dbc0	0.088309765
236	0x3c045419	0.008076691
237	0x3c1cd199	0.009571456
238	0xbd6e609f	-0.058197614
239	0x3d88b409	0.06674964
240	0xbcdfe1d0	-0.027329355
241	0x3e213a55	0.15744908
242	0x3f150b4b	0.58220357
243	0x3cf0a3d4	0.029374994
244	0xbe736e1b	-0.2377247
245	0xbea0619f	-0.3132448
246	0x3c787500	0.015164614
247	0xbd911303	-0.07083704
248	0xbd408888	-0.047005206
249	0xbeac841d	-0.33694544
250	0xbe0f263b	-0.13979428
251	0xbd4c6706	-0.04990294
252	0x3ef8ca3b	0.4859179
253	0xbe08d0a1	-0.13360836
254	0xbd8b6d10	-0.068079114
255	0x3d969060	0.07351756

linear_relu_stack.3.bias f4 [64]
0	0x3f8da6d8	1.1066542
1	0xbf57505d	-0.84107
2	0x3ff92417	1.9464139
3	0xbcb9e2ba	-0.02269112
4	0x3f54040b	0.8281867
5	0x3ec9391f	0.39301392
6	0x3f7b651c	0.98201156
7	0x3e251e79	0.16124906
8	0xbea3ba6e	-0.31978172
9	0xbc013714	-0.007886667
10	0xbe224f42	-0.15850547
11	0xbef8eabb	-0.48616585
12	0xbe18bd06	-0.14915857
13	0xbf4fd6e5	-0.8118728
14	0x3da54b9c	0.08071062
15	0x3fb50365	1.4141661
16	0xbf43824c	-0.7637069
17	0x3e11d6ea	0.1424214
18	0x3f817dd8	1.011653
19	0xbed6ab00	-0.41927338
20	0xbda9fcb4	-0.083001524
21	0xbd618414	-0.0550576
22	0x3ea26e1b	0.3172463
23	0xbb95e68a	-0.0045746015
24	0x3e2facc9	0.17155756
25	0xbf950072	-1.1640761
26	0xbf11c5cb	-0.56942433
27	0x3e108508	0.14113247
28	0xbe3d3215	-0.18476136
29	0x3f119f62	0.56883824
30	0xbdecf62e	-0.115703925
31	0x3fb1c8d6	1.3889415
32	0xbe358b7a	-0.17728987
33	0x3e879f96	0.26488942
34	0xbe96cd53	-0.29453525
35	0xbf1d32d7	-0.614057
36	0x3eb8c48a	0.36087447
37	0x3f2e9dc2	0.6820947
38	0x3eb7f3d3	0.3592821
39	0xbf71dc22	-0.9447652
40	0x3e9b3429	0.30313233
41	0xbd0e0f18	-0.034682363
42	0xbe272707	-0.16323482
43	0xbf545065	-0.8293517
44	0x3ecaf285	0.39638153
45	0x3f023674	0.5086434
46	0x3be54022	0.0069961706
47	0x3efcc761	0.49370864
48	0x3ebfc62d	0.37455884
49	0xbf563f6b	-0.8369052
50	0x4024f42e	2.5774035
51	0xc05024f1	-3.2522547
52	0x3f33e884	0.70276666
53	0x3e419685	0.18905075
54	0xc0339fe7	-2.8066347
55	0xbdec2f9e	-0.1153252
56	0xc083b5de	-4.1159506
57	0x3f598166	0.8496307
58	0xbf4356a3	-0.7630407
59	0x3b20bb4b	0.0024525698
60	0x3fa4bcdd	1.2870136
61	0x3e05040f	0.1298983
62	0x3f773ac7	0.9657406
63	0xbf87216e	-1.0557077

linear_relu_stack.6.weight f4 [64, 64]
0	0xbe9be8e6	-0.30451125
1	0x3eb0ae92	0.34508187
2	0x3ee22a6f	0.44173
3	0x3c11ac82	0.008891227
4	0xbe020a32	-0.12699202
5	0xbe913e24	-0.28367722
6	0xbb0984bc	-0.0020983657
7	0x3de07366	0.109595105
8	0x3e136ced	0.1439702
9	0xbae5d4de	-0.0017534753
10	0x3d85f493	0.065407895
11	0xbd2d7372	-0.042346425
12	0x3c6bdb0d	0.0143954875
13	0x3e202908	0.15640652
14	0x3dbb5ccb	0.09148558
15	0x3e0a818c	0.1352598
16	0xbd80f642	-0.0629697
17	0xbd392a80	-0.045206547
18	0x3d85c67a	0.06531997
19	0x3e85aa5a	0.2610653
20	0xbe5f0d55	-0.2178243
21	0xbe54170e	-0.2071192
22	0xbec6dcba	-0.38840276
23	0xbc5f45f5	-0.013627519
24	0x3d809a50	0.06279433
25	0xbe633c02	-0.2219086
26	0x3e3d22fa	0.18470374
27	0xbdfd6e79	-0.123745866
28	0xbdd1a29d	-0.10236094
29	0xbdecb9e1	-0.11558891
30	0x3b99f227	0.0046980563
31	0x3e87177f	0.26385114
32	0xbe810ce3	-0.25205144
33	0xbe51c8ef	-0.20486806
34	0x3dac350f	0.084085576
35	0xbdf8b576	-0.12143986
36	0x3d31a6b0	0.043371856
37	0x3e7fafc3	0.24969392
38	0xbe24503f	-0.16046236
39	0x3d3f0551	0.04663593
40	0x3e29b0d1	0.16571356
41	0xbd2cf5a1	-0.042226437
42	0xbe54f1df	-0.20795391
43	0xbccdbd04	-0.025114544
44	0xbca79a9f	-0.020459471
45	0x3e54668e	0.20742247
46	0xbedf7120	-0.43640995
47	0x3db4b36f	0.08823287
48	0x3eccd83d	0.40008727
49	0x3d96bab9	0.07359833
50	0x3ea437e6	0.32073897
51	0xbe9fe3ea	-0.31228572
52	0xbdda79fc	-0.10667798
53	0x3d67f1a8	0.056626946
54	0x3d229159	0.039689396
55	0xbcf62096	-0.030044835
56	0xbfde987e	-1.7390287
57	0xbebf0b5f	-0.37313363
58	0x3c3d9dd0	0.01157327
59	0xbdb29a5f	-0.0872085
60	0xbe3dc984	-0.18533903
61	0x3d6933c1	0.056934122
62	0xbc2aef8c	-0.010433089
63	0xbdc2565c	-0.09489128
64	0xbaddf518	-0.0016934006
65	0x3e518734	0.20461732
66	0x3e0ebaa8	0.13938391
67	0xbea5013a	-0.32227498
68	0xbeac1c9c	-0.33615577
69	0x3e74ece7	0.23918496
70	0xbda3e2df	-0.080022566
71	0xbeda5d72	-0.42649418
72	0xbccabd36	-0.024748426
73	0x3d90aeb4	0.07064572
74	0x3d8b0ae7	0.06789189
75	0xbd253882	-0.040337093
76	0x3eca933d	0.3956546
77	0xbdc5eb73	-0.09664049
78	0x3dc10690	0.0942508
79	0xbe842dd4	-0.25816214
80	0xbe149a36	-0.14511952
81	0x3da81027	0.08206206
82	0xbef1a6f7	-0.47197697
83	0xbc313ba3	-0.010817441
84	0x3e16ebe8	0.14738429
85	0xbe77acd4	-0.24187022
86	0xbdb73435	-0.089455046
87	0xbc44def1	-0.012016044
88	0xbe9548a0	-0.2915697
89	0x3e4ab34d	0.1979496
90	0x3e719cb4	0.23594934
91	0x3c931743	0.017955428
92	0x3e8e5335	0.27797857
93	0x3d413e00	0.04717827
94	0xbf070870	-0.5274725
95	0xbda2f778	-0.07957357
96	0x3d718739	0.05896685
97	0x3db880f6	0.09008972
98	0x3e9d42fa	0.30715162
99	0x3eadea56	0.33967847
100	0xbe077036	-0.13226399
101	0xbe1b4de6	-0.15166435
102	0x3ebc67f0	0.36798048
103	0xbe29702e	-0.165467
104	0xbe849a44	-0.25898945
105	0xbde6e1dc	-0.11273548
106	0x3cc29a4a	0.023755211
107	0xbd4dbb32	-0.05022735
108	0x3dc1ffe0	0.094726324
109	0xbe871965	-0.26386562
110	0xbef1ba74	-0.47212565
111	0x3f9cfa11	1.2263814
112	0xbdb152e8	-0.08658391
113	0x3dbc23c7	0.091865115
114	0xbf5df364	-0.8669951
115	0xbe8f2bba	-0.27963048
116	0x3ce86f0c	0.028373264
117	0x3da0c9bc	0.07850978
118	0x3d26fe62	0.040769942
119	0xbdcaee1a	-0.099086955
120	0xbe994f16	-0.2994315
121	0x3dee5f4b	0.116392694
122	0xbe6c5f01	-0.23083116
123	0x3ee046cd	0.43804017
124	0x3e95bb90	0.2924466
125	0xbdc1683a	-0.09443708
126	0xbd29899a	-0.041390993
127	0x3dc9858a	0.09839924
128	0x3cd1a2c9	0.025590317
129	0x3da374b7	0.07981246
130	0xbdf157a1	-0.11784292
131	0x3e5476f1	0.20748498
132	0x3d0e95f0	0.03481096
133	0xbd1c6207	-0.038179424
134	0x3b954edd	0.0045565204
135	0xbd8227c7	-0.06355243
136	0x3e07254e	0.13197824
137	0xbe01c205	-0.12671669
138	0xbdc74597	-0.0973007
139	0xbc80a55a	-0.015703846
140	0x3d64e935	0.055886466
141	0x3e46846a	0.1938645
142	0x3dcd12e5	0.100133695
143	0x3ced6e51	0.028983267
144	0xbdc3cae2	-0.09560181
145	0xbcaedaeb	-0.021344623
146	0x3e8804e5	0.26566234
147	0x3d872167	0.06598168
148	0x3ec441c3	0.38331422
149	0xbde7b07d	-0.11312959
150	0x3e0c4c5e	0.13701007
151	0xbda15530	-0.07877576
152	0x3e3cb36e	0.18427822
153	0xbe822c97	-0.25424644
154	0x3d95775d	0.07298157
155	0xbdc1a6fd	-0.094556786
156	0x3ec4dd5d	0.38450137
157	0x3ceb8b7c	0.028753035
158	0xbe88f762	-0.26751238
159	0xbecfe1bc	-0.4060191
160	0xbd88342b	-0.06650575
161	0x3f095fc3	0.53661746
162	0xbc5437a8	-0.012952723
163	0x3d784807	0.060615566
164	0x3e2464cb	0.16054074
165	0x3e176ac5	0.14786823
166	0x3cae5ba2	0.021283928
167	0xbdbe4846	-0.09291129
168	0x3e36e9a7	0.17862569
169	0x3d7d3a15	0.06182297
170	0x3e6e0d0c	0.23247164
171	0x3e082368	0.13294756
172	0xbdf1b914	-0.11802879
173	0x3ddec671	0.108776934
174	0x3d4380e7	0.047730353
175	0x3d9a9439	0.075478025
176	0x3de68b09	0.112569876
177	0x3d0f8126	0.035035275
178	0xbc392654	-0.011300642
179	0x3e173990	0.14768052
180	0x3c491793	0.012273687
181	0x3d08cf94	0.033401087
182	0xbe72fcb4	-0.23729211
183	0x3c588091	0.013214246
184	0xbeebfeec	-0.46092927
185	0x3ed21b65	0.41036525
186	0xbe3f22bb	-0.18665592
187	0xbf007140	-0.50172806
188	0x3db8bbea	0.09020217
189	0x3bad45dc	0.005287869
190	0x3db4aafa	0.08821674
191	0xbda8af41	-0.08236552
192	0xbe193eb6	-0.14965329
193	0x3c5649f8	0.013079159
194	0x3abed6de	0.0014559885
195	0xbe009fa5	-0.125609
196	0x3eba826c	0.3642763
197	0x3e455fc1	0.19274808
198	0x3d957fff	0.07299804
199	0xbeb927c2	-0.36163145
200	0xbf003181	-0.50075537
201	0x3dd75f2d	0.105162
202	0xbebcd0c4	-0.36878026
203	0x3ef2ab1e	0.47396177
204	0x3eb4a0fa	0.35279065
205	0x3d3fb87b	0.046806794
206	0xbeacce3d	-0.33751097
207	0x3dd97168	0.10617334
208	0x3ea3be92	0.3198133
209	0x3ddd7ef5	0.10815231
210	0xbeeea84e	-0.4661278
211	0xbde5aa28	-0.11214095
212	0x3de85687	0.11344629
213	0xbe3204e0	-0.17384672
214	0xbe23c42f	-0.15992807
215	0xbea7e02b	-0.32788214
216	0xbf601c1c	-0.8754289
217	0xbd8f34c1	-0.06992484
218	0xbe2f2a62	-0.17106012
219	0xbe38020f	-0.17969535
220	0xbd8389be	-0.064227566
221	0xbdfc1e02	-0.12310411
222	0x3f49a457	0.7876639
223	0xbcbfd7a1	-0.02341825
224	0xbdc6e27a	-0.09711166
225	0x3e235620	0.15950823
226	0x3dbc421d	0.091922976
227	0x3e2ed63d	0.17073913
228	0xbe00223c	-0.1251306
229	0xbdedb8b7	-0.11607497
230	0xbeaf0ead	-0.34190884
231	0xbd85bd28	-0.06530219
232	0xbdbb99ce	-0.09160195
233	0xbd445016	-0.04792794
234	0xbf1ac695	-0.6045926
235	0xbf0b6fef	-0.5446767
236	0x3d010a97	0.03150424
237	0xbe3f5680	-0.18685341
238	0x3e2daec5	0.169612
239	0x3e37501d	0.17901655
240	0x3f245ddf	0.64205736
241	0xbda67f72	-0.08129777
242	0xbef448a0	-0.47711658
243	0xbe7c9fcc	-0.24670333
244	0x3e3d8f16	0.18511614
245	0xbe566d12	-0.20940045
246	0xbf530185	-0.82424194
247	0xbc166895	-0.009180208
248	0x3d8871dc	0.06662342
249	0x3e39d3a1	0.18147136
250	0x3e2a659e	0.16640326
251	0x3e7dc5df	0.24782513
252	0x3f3548fb	0.70814484
253	0x3dd87f8f	0.10571205
254	0xbec1599b	-0.37763676
255	0xbd54db92	-0.05196721

linear_relu_stack.6.bias f4 [64]
0	0x3ef10357	0.4707286
1	0x3ee80c51	0.45321897
2	0xbeeb07ac	-0.4590429
3	0x3bf88f3c	0.0075854342
4	0xbf119f43	-0.5688364
5	0x3f4bd8b1	0.7962752
6	0x3ed5b465	0.41739193
7	0xbf41d38f	-0.7571344
8	0x3f5a843e	0.85358036
9	0xbf61064a	-0.8790022
10	0xbf9be0e9	-1.2178012
11	0xbe907568	-0.28214574
12	0xbef214fe	-0.4728164
13	0xbff68958	-1.9260664
14	0x3f8a68f8	1.0813284
15	0x3f165810	0.5872812
16	0x3eba91fd	0.36439505
17	0xbf1e0ece	-0.6174134
18	0xbd9c282a	-0.07624848
19	0xbfe3e7d5	-1.7805125
20	0x3ef502da	0.47853738
21	0xbe2e46e8	-0.17019236
22	0x3e921181	0.2852898
23	0x3f22deae	0.6362103
24	0xbf46dbe3	-0.7767927
25	0xbe82a93e	-0.25519747
26	0x3f63554e	0.8880204
27	0x3ea90cd4	0.330176
28	0xbcf622d4	-0.030045904
29	0xbe3285f5	-0.17433913
30	0xbf1aeaa5	-0.6051429
31	0x3e28f720	0.1650052
32	0x3ead698d	0.3386959
33	0xbe51b3bd	-0.20478721
34	0xbedc516c	-0.4303087
35	0x3f8454fb	1.0338434
36	0x3e39c613	0.18141966
37	0x3f46c6a1	0.77646834
38	0x3f8716aa	1.0553792
39	0x3f81d12f	1.0141963
40	0xbf996abf	-1.1985701
41	0x3f0307df	0.51183885
42	0x3f189821	0.5960713
43	0x3e8bc426	0.27298087
44	0x3eb9f469	0.36319283
45	0x3f13ba0f	0.5770578
46	0x3f7160a8	0.9428811
47	0x3f4e7033	0.8063995
48	0x3f257fe2	0.6464826
49	0xbf77d1ab	-0.968043
50	0x3c73a785	0.014871483
51	0xbd231e0b	-0.039823573
52	0x3e9716a0	0.2950945
53	0xbf7493be	-0.95537937
54	0x3ea26183	0.3171502
55	0x3d855a3c	0.065113515
56	0x400e50ef	2.2236898
57	0x3f283597	0.6570677
58	0x3faf7516	1.3707607
59	0x3e06a58d	0.1314909
60	0x3fad33fb	1.3531488
61	0xbf91636d	-1.1358467
62	0x3f2cb2bb	0.6746022
63	0xbe2d4b34	-0.16923219

linear_relu_stack.9.weight f4 [64, 64]
0	0xbd07a040	-0.03311181
1	0xbc285fc5	-0.0102767395
2	0xbd3bbfa9	-0.04583708
3	0xbdcca9e4	-0.099933416
4	0xbbdffea3	-0.006835775
5	0x3c5cd566	0.0134786125
6	0x3e6cb98d	0.23117657
7	0x3e0aee5d	0.13567491
8	0x3dd7988c	0.10527143
9	0xbd8e56b1	-0.06950129
10	0xbc492112	-0.012275951
11	0x3e8db712	0.27678734
12	0xbd875c81	-0.066094406
13	0xbf0652bb	-0.52469987
14	0xbe6b45ef	-0.22975896
15	0xbd4402d7	-0.04785427
16	0x3e07e5d7	0.1327127
17	0x3eb16b2e	0.34652084
18	0x3e194118	0.14966238
19	0x3c876322	0.016526762
20	0x3da535db	0.08066913
21	0x3c4da46c	0.012551408
22	0x3e26bb0f	0.16282295
23	0xbe6e58bc	-0.23276037
24	0x3e56d91b	0.20981257
25	0xbe40938e	-0.18806288
26	0xbd84af28	-0.06478721
27	0x3ea06500	0.31327057
28	0xbcc365e1	-0.02385229
29	0x3e86534e	0.2623543
30	0x3daba841	0.08381701
31	0xbe04e477	-0.12977777
32	0xbe52df8f	-0.20593093
33	0x3e54f14d	0.20795174
34	0x3cd3b510	0.025843173
35	0xbed7c14a	-0.42139655
36	0x3ceb9ccd	0.028761292
37	0xb9aea55e	-0.00033311074
38	0xbe74588f	-0.23861907
39	0xbe0fd95f	-0.14047764
40	0x3c0acabf	0.00847119
41	0x3c2f7d6c	0.010711055
42	0xbe00cce2	-0.12578157
43	0x3e9466f1	0.28984788
44	0xbe38a4ad	-0.18031569
45	0x3d028dff	0.0318737
46	0x3d727853	0.05919678
47	0xbeaf5ebb	-0.3425196
48	0x3bdb05a6	0.006684023
49	0xbcfca644	-0.030841
50	0xbdea2748	-0.114332736
51	0x3d8a5fff	0.06756591
52	0xbd5246ee	-0.051337175
53	0x3e1b0dfa	0.1514205
54	0x3ea02e39	0.31285265
55	0xbdf7e9e6	-0.121051595
56	0x3e1b792c	0.15182942
57	0xbe1de91b	-0.15420954
58	0xbf1b8d8d	-0.60762864
59	0x3b54f12a	0.0032492378
60	0x3e03f622	0.12886861
61	0x3ddb20d1	0.106996186
62	0x3de53f31	0.111936934
63	0x3e6bfddd	0.2304606
64	0xbcb5f827	-0.022213055
65	0xbd9c26b2	-0.07624568
66	0x3e96eb7d	0.29476538
67	0xbf0e8e60	-0.55685997
68	0xbc411ec4	-0.01178712
69	0xbc72dc5f	-0.014823048
70	0xbd388929	-0.04505268
71	0xbe1b4613	-0.1516345
72	0x3d956e29	0.07296402
73	0xbe73f2e5	-0.23823126
74	0xbdb1b08e	-0.08676253
75	0xbe867bd0	-0.26266336
76	0x3e9d955c	0.30778015
77	0xbd306465	-0.043064494
78	0x3de5afe7	0.11215191
79	0x3e13b6a7	0.14425145
80	0x3db480d8	0.088136375
81	0xbdd12bb0	-0.10213411
82	0x3d740bed	0.059581686
83	0xbecb5d71	-0.39719728
84	0xbf0ec7c2	-0.55773556
85	0xbd6f67b4	-0.05844851
86	0x3da84b72	0.08217515
87	0xbeb9cb41	-0.36287883
88	0x3e4da16b	0.20081107
89	0x3e57a3ba	0.2105855
90	0xbdf3ea9c	-0.119099826
91	0x3e0cce2a	0.1375052
92	0xbd839698	-0.06425208
93	0xbe58a21b	-0.21155588
94	0x3df2fa67	0.11864167
95	0xbf1bf620	-0.6092243
96	0x3c216ef8	0.009853117
97	0x3e0a4b57	0.13505302
98	0x3dcaa524	0.09894779
99	0x3d8c5c25	0.06853513
100	0x3d8688ea	0.06569083
101	0xbe59d4ec	-0.2127263
102	0xbdae462c	-0.08509478
103	0x3e1fe207	0.15613566
104	0x3d21f8a9	0.03954378
105	0xbc7391b4	-0.014866281
106	0x3e9a92c1	0.3019009
107	0x3df93371	0.12168015
108	0xbea015cf	-0.3126664
109	0xbd440c75	-0.047863442
110	0xbec9a8ea	-0.39386684
111	0xbddfce7b	-0.10928055
112	0x3ccbed18	0.024893329
113	0x3eb7f183	0.35926446
114	0x3f28cfc4	0.65942025
115	0xbe417cc4	-0.1889525
116	0x3d9b758e	0.07590781
117	0xbe9234d9	-0.28555945
118	0xbbffc13d	-0.007805018
119	0x3e4411a6	0.19147357
120	0x3e502668	0.20327151
121	0xbec98575	-0.39359632
122	0x3e4a655b	0.19765227
123	0xbdb41fcf	-0.087951295
124	0x3e137be8	0.14402735
125	0x3e3abfb5	0.18237193
126	0xbe681ab0	-0.2266643
127	0xbac03a9e	-0.0014665907
128	0x3ea5313b	0.32264122
129	0xbe7e3e42	-0.24828437
130	0x3dd27f2e	0.10278164
131	0x3c8f353b	0.017481437
132	0x3c1cd416	0.00957205
133	0x3e0b6bd2	0.13615349
134	0xbe375b50	-0.17905927
135	0xbea24b10	-0.31697893
136	0x3cabb3f1	0.020959826
137	0x3d173c4b	0.036922734
138	0x3cadcb1d	0.021215016
139	0xbd997bac	-0.07494292
140	0xbe80ed5a	-0.25181085
141	0xbd9cee1e	-0.07662605
142	0xbdac887d	-0.084244706
143	0xbde0f72a	-0.10984643
144	0x3d216eeb	0.03941242
145	0x3e4acb80	0.19804192
146	0x3db53d62	0.088495985
147	0xbe155811	-0.14584376
148	0xbd478db3	-0.04871912
149	0xbe13d71e	-0.1443753
150	0xbdd11c70	-0.10210502
151	0x3cfff8e7	0.031246616
152	0xbdef598a	-0.11687
153	0xbd409e68	-0.047026068
154	0x3e9361f3	0.28785667
155	0xbcad06d3	-0.021121418
156	0xbdb8f231	-0.09030569
157	0xbe0acdd9	-0.13555087
158	0xbec6ad77	-0.38804218
159	0x3d201521	0.03908265
160	0xbe7df734	-0.24801332
161	0x3e9437a5	0.28948703
162	0x3da8eede	0.08248685
163	0x3e68aac9	0.227214
164	0x3eb48930	0.35260916
165	0xbe69eff6	-0.22845444
166	0x3d50000e	0.050781302
167	0xbe2c5f21	-0.16833164
168	0x3ea239d1	0.31684735
169	0xbed720f0	-0.42017317
170	0x3e512c79	0.20427121
171	0x3d80b046	0.062836215
172	0x3e6ce952	0.2313588
173	0x3dabbe62	0.08385922
174	0xbef22a0a	-0.47297698
175	0x3ce743b8	0.028230533
176	0xbc357034	-0.011074115
177	0x3e4dedb8	0.20110214
178	0xbf2df9ef	-0.67959493
179	0x3df61391	0.12015451
180	0x3c23a2e4	0.009987567
181	0x3c60b8a8	0.0137159005
182	0xbe5e3aa2	-0.21702054
183	0xbd124e2d	-0.035719085
184	0x3eebe360	0.4607191
185	0x3dbc8020	0.092041254
186	0xbebdf1c2	-0.3709851
187	0x3e501280	0.20319557
188	0xbe7297a5	-0.2369066
189	0x3e033374	0.12812597
190	0xbea7b4fd	-0.3275527
191	0x3c2d3618	0.010571979
192	0xbf5989f7	-0.8497614
193	0xbe8c266c	-0.27373064
194	0xbb89ae0c	-0.004201656
195	0x3e8a980e	0.27069134
196	0xbfc8ab33	-1.5677246
197	0xbd671052	-0.05641205
198	0xbef0c28b	-0.47023425
199	0xbd895d38	-0.06707233
200	0x3f0bd463	0.5462095
201	0xbe3c5758	-0.18392694
202	0xbdbf50a0	-0.0934155
203	0xbf089e73	-0.53366774
204	0x3ebf0693	0.37309703
205	0xbf1755f2	-0.5911552
206	0xbcf43c52	-0.02981392
207	0xbe3c68fb	-0.18399422
208	0x3e32ffe0	0.17480421
209	0xbf218b60	-0.63103294
210	0x3d9e1022	0.07717921
211	0xbd1c0666	-0.03809204
212	0x3e8ac13f	0.2710056
213	0x3e406942	0.18790153
214	0xbea20310	-0.31642962
215	0x3f02d33b	0.5110356
216	0xbd2c1d30	-0.042020023
217	0xbe55837f	-0.20850943
218	0x3e3f1b05	0.18662651
219	0x3e55cbee	0.20878574
220	0x3cff8253	0.031190073
221	0x3bb5ffb7	0.005554165
222	0x3ebe4210	0.37159777
223	0x3e9e8380	0.30959702
224	0xbe9d77f9	-0.30755594
225	0x3e821e70	0.25413847
226	0x3b319af1	0.002710041
227	0x3e4f6e3e	0.20256898
228	0xbed203d8	-0.41018558
229	0x3ec83c24	0.39108384
230	0xbf6bd699	-0.92124325
231	0xbb1ef84c	-0.0024256883
232	0xbbfe1afd	-0.007754682
233	0xbd953a6a	-0.07286532
234	0x3f010f12	0.5041362
235	0x3e05b31a	0.13056603
236	0x3c968149	0.018372195
237	0x3e6ecf5d	0.2332129
238	0xbe2937ed	-0.1652524
239	0x3e80ea70	0.25178862
240	0xbb8139fa	-0.003943679
241	0xbf008ee4	-0.50218034
242	0x3f277786	0.65416753
243	0xbebcafce	-0.36852878
244	0xbe09200c	-0.13391131
245	0xbea4cafe	-0.3218612
246	0xbdcc7760	-0.099837065
247	0xbe05c91f	-0.13065003
248	0xbe460ddc	-0.19341224
249	0x3d5a2d6e	0.05326598
250	0xbcb8cc85	-0.02255846
251	0xbd90f02c	-0.07077059
252	0x3e75fedc	0.24023002
253	0xbdbf4460	-0.09339213
254	0x3d0ab15a	0.033860542
255	0x3daa5f13	0.08318915

linear_relu_stack.9.bias f4 [64]
0	0x3f07d419	0.5305801
1	0xbef215c1	-0.47282222
2	0x3f07fef7	0.5312342
3	0x3f4ce91d	0.800432
4	0xbf07e31e	-0.5308093
5	0x3ea23753	0.31682834
6	0x3bf74631	0.0075462093
7	0x3f23cb57	0.63982147
8	0x3f1e7b80	0.61907196
9	0xbe954d98	-0.29160762
10	0x3fa154eb	1.260404
11	0x3ec64bac	0.38729608
12	0x3f822089	1.0166179
13	0xbe98c1b8	-0.29835296
14	0x3f864125	1.048863
15	0x3db660f1	0.08905209
16	0xbe6198e2	-0.22030976
17	0x3e858830	0.26080465
18	0x3f58561c	0.8450639
19	0x3f752285	0.957558
20	0x3f880dfd	1.0629269
21	0x3f48e618	0.78476095
22	0x3f9c681e	1.2219274
23	0xbf74cb6c	-0.956229
24	0xbe0a9ca9	-0.13536324
25	0xbda6721d	-0.08127234
26	0x3f92d8f4	1.1472459
27	0x3e3c9a5d	0.1841826
28	0x3f8754dc	1.0572772
29	0x3e2f6b13	0.1713069
30	0x3ea410a0	0.32043934
31	0x3f9cfbe3	1.226437
32	0x3ed3b41f	0.4134836
33	0x3f14c6a2	0.5811559
34	0xbe181ac6	-0.14853963
35	0x3ee4013d	0.44532195
36	0x3eee91e0	0.4659567
37	0x3f009428	0.5022607
38	0x3f66508a	0.8996664
39	0x3f93d6ae	1.154989
40	0xbdc70c0f	-0.09719097
41	0xbeebac0f	-0.46029708
42	0xbe5c194b	-0.21494024
43	0x3f7ed6b7	0.9954638
44	0x3f40959b	0.7522828
45	0x3f3eed7f	0.7458114
46	0x3fc68425	1.5509077
47	0x3f1ec6da	0.62022173
48	0x3ee9aa6d	0.45637837
49	0x3f0febd8	0.56219244
50	0x3eacce6a	0.3375123
51	0x3f2effc6	0.6835903
52	0x3e99dd18	0.30051494
53	0xbcc71f29	-0.02430685
54	0xbe190ddb	-0.14946692
55	0x3fbf070f	1.4924029
56	0x3e6a94ae	0.2290828
57	0x3f834caa	1.0257771
58	0x3f20a59c	0.627527
59	0x3eab5c24	0.33468735
60	0x3e97ce48	0.29649568
61	0x3f00fc27	0.50384754
62	0xbed414d2	-0.41422135
63	0x3ed12de8	0.40855336

linear_relu_stack.12.weight f4 [20, 64]
0	0x3e544a3c	0.20731443
1	0xbeb6cc68	-0.35702825
2	0x3eff0ba2	0.49813563
3	0x3ef92ad5	0.4866549
4	0xbfb62d84	-1.423264
5	0xbf6fddae	-0.9369763
6	0x3e896cf9	0.26840952
7	0xbf5e2fe8	-0.8679185
8	0x3e10376b	0.1408364
9	0x3ecb485b	0.3970364
10	0xc0a833eb	-5.2563376
11	0xbdcfb390	-0.10141671
12	0xc05b4863	-3.4262931
13	0xbfde44c4	-1.7364736
14	0x3ec13dd5	0.37742487
15	0x3d9ab7bd	0.075545765
16	0xbd2f5a5b	-0.04281078
17	0xbe033dcf	-0.12816547
18	0x3f13e85e	0.5777644
19	0xbf9e155a	-1.2350266
20	0x3ebdee1c	0.37095726
21	0xbfcbeaef	-1.5931071
22	0xbfadf0e5	-1.358914
23	0x3c3a13d7	0.011357269
24	0x3ec38c58	0.3819301
25	0x3d3c8a0e	0.046030097
26	0xbd2a5368	-0.04158345
27	0xbe419f4c	-0.18908423
28	0xbfaeebc0	-1.3665695
29	0xbe102114	-0.14075118
30	0xbe524f91	-0.20538165
31	0xbc968790	-0.018375188
32	0x3f5670ab	0.8376567
33	0x3e6e6cb4	0.23283654
34	0xbb8b7712	-0.0042561376
35	0xbfd23882	-1.6423495
36	0x3eef24e0	0.4670782
37	0xbe98e8b4	-0.29865038
38	0xbfdddce5	-1.7333037
39	0xc079f9d1	-3.9058726
40	0x3f46820a	0.77542174
41	0xbe304671	-0.17214371
42	0xbcbb809c	-0.022888474
43	0xbd8108fa	-0.0630054
44	0xbe5796e0	-0.21053648
45	0x3f31e9ad	0.69497186
46	0xbfed48fb	-1.8537897
47	0xbea5cb38	-0.32381606
48	0x3d8d9af4	0.069143206
49	0x3e1ed139	0.155095
50	0x3f103ebc	0.56345725
51	0xbf61e27e	-0.88236225
52	0xc0020fc1	-2.0322115
53	0xbf2c9781	-0.67418677
54	0xbbb62d56	-0.0055596037
55	0xbe9581aa	-0.29200488
56	0xbed3ea08	-0.4138949
57	0xc017dfb8	-2.3730297
58	0xbe8ac12d	-0.27100506
59	0x3ef501df	0.4785299
60	0xbe8483c1	-0.2588177
61	0x3d9a681d	0.07539389
62	0x3f0f75ee	0.5603932
63	0xbf19b689	-0.6004415
64	0x3d28b59f	0.041188832
65	0x3d101179	0.035172913
66	0x3d118f3c	0.03553699
67	0x3e3b97ce	0.18319628
68	0x3d75f60b	0.060049098
69	0x3dbb6dcb	0.09151801
70	0xbc0c43b7	-0.008561066
71	0x3ce541aa	0.027985413
72	0xbdcfdcba	-0.10149522
73	0x3e576d3e	0.21037766
74	0xbc40dce9	-0.011771419
75	0x3db99b73	0.09062853
76	0x3e0dee0a	0.13860336
77	0x3bdc2e7e	0.0067194095
78	0x3d949a54	0.07255998
79	0xbe5f9469	-0.21833958
80	0xbc040db2	-0.008059906
81	0x3c5b4202	0.013382437
82	0x3db4ed99	0.08834381
83	0xbb0ad0a4	-0.0021181488
84	0xbc81adcd	-0.015829945
85	0xbd790f36	-0.060805522
86	0x3d39cb36	0.045359813
87	0xbc21a21b	-0.009865309
88	0x3d6a4459	0.057194088
89	0x3e1d96ee	0.15389606
90	0xbe4b877b	-0.198759
91	0xbdbc676f	-0.09199416
92	0x3beb9f3c	0.007190613
93	0x3da3aea2	0.07992293
94	0xbccb5b81	-0.024823906
95	0xbbebac4e	-0.007192171
96	0x3e2641fe	0.16236112
97	0x3d44e889	0.048073325
98	0xbbf9b0af	-0.0076199393
99	0x3d563c45	0.05230357
100	0x3e26e619	0.16298713
101	0x3c9e98ef	0.019360034
102	0xbe0bf454	-0.13667423
103	0x3df725b2	0.12067737
104	0xbc8a64ca	-0.016893763
105	0x3e0eb816	0.1393741
106	0xbd768d2a	-0.06019322
107	0x3e00b293	0.1256812
108	0x3cd3b16c	0.025841437
109	0xbd3344d0	-0.043766797
110	0x3de525bf	0.1118884
111	0x3d9d7ed3	0.076902054
112	0x3d168108	0.036744148
113	0xbe009a9b	-0.12558977
114	0x3da97de3	0.08275964
115	0xbde542d7	-0.11194389
116	0x3cfc3727	0.030788017
117	0x3d0e7a48	0.034784585
118	0x3e10026b	0.14063422
119	0x3d8fd352	0.07022728
120	0xbdb70205	-0.08935932
121	0x3daa5d9e	0.08318637
122	0xbb9798db	-0.004626376
123	0xbc464217	-0.012100718
124	0xbca46ad5	-0.020070473
125	0x3e0fbc8f	0.14036773
126	0x3e053e7f	0.13012122
127	0x3e2790d0	0.16363835
128	0xbe54ec2c	-0.20793217
129	0xbd96105d	-0.0732734
130	0x3e78827c	0.24268526
131	0x3d91bfbf	0.07116651
132	0xbc4d2c39	-0.0125227505
133	0x3d90453e	0.07044457
134	0x3d8b8525	0.06812505
135	0xbdaf50e5	-0.08560351
136	0x3dc46214	0.095890194
137	0x3e5cea49	0.21573748
138	0x3e079029	0.13238586
139	0x3d82ebf2	0.06392659
140	0xbd2b2c5e	-0.04179036
141	0xbd443a0e	-0.047906928
142	0x3d074797	0.033027258
143	0xbbd096d4	-0.0063656364
144	0x3afe4add	0.0019400973
145	0xbb5b1bdd	-0.0033433356
146	0x3da5e2a1	0.08099867
147	0xbbf92de3	-0.007604347
148	0xbd904af5	-0.07045547
149	0x3df21935	0.11821214
150	0x3c5eafb4	0.013591696
151	0x3e03daeb	0.1287648
152	0x3deab46b	0.11460193
153	0x3dfd15a6	0.12357645
154	0xbc8f2db9	-0.017477857
155	0x3e200507	0.15626918
156	0x3e74a019	0.23889197
157	0xbc93b1b7	-0.018029077
158	0xbcc3db02	-0.023908142
159	0xbd9b368f	-0.075787656
160	0x3d6cec9a	0.05784283
161	0x3bb49034	0.0055103544
162	0xbce59f56	-0.028030079
163	0xbcca2542	-0.024675969
164	0x3ab3e288	0.0013724128
165	0x3c7a1cda	0.015265668
166	0x3e25e3ec	0.16200227
167	0xbe1f0c1b	-0.15531962
168	0x3ddcdd0c	0.10784349
169	0x3e3b757f	0.1830654
170	0xbcd37711	-0.025813611
171	0xbb605e8b	-0.003423604
172	0xbcf72a7e	-0.030171629
173	0x3d0d99f3	0.034570646
174	0x3d017b79	0.031611893
175	0xbe1640b8	-0.14673126
176	0x3e3c0d08	0.18364346
177	0xbe0afc30	-0.13572764
178	0x3d01df59	0.03170714
179	0xbccb4246	-0.024811875
180	0x3d919ccd	0.071099855
181	0xbdac2a09	-0.08406455
182	0x3dc49377	0.09598439
183	0xbda378e8	-0.079820454
184	0xbca1c521	-0.019747319
185	0x3db03280	0.08603382
186	0x3dd2ec30	0.102989554
187	0xbda60ee4	-0.08108309
188	0x3d2b1e7b	0.041777115
189	0x3dddc1b9	0.10827965
190	0x3dc8cb7c	0.098044366
191	0xbcaaa51a	-0.02083068
192	0x3c928f84	0.0178907
193	0x3c9a4b2d	0.018834675
194	0xbe0d7b75	-0.13816626
195	0x3d36a6a6	0.044592522
196	0x3ee7c745	0.45269218
197	0x3d04cf28	0.032424122
198	0xbca98c09	-0.020696657
199	0xbde1f5a4	-0.1103318
200	0xbd9a3f0e	-0.07531558
201	0xbd9de39f	-0.07709431
202	0xbe1a58d9	-0.15072955
203	0x3d223876	0.039604627
204	0xbec72c5b	-0.38901028
205	0x3ccf7a1d	0.025326783
206	0x3f037cf8	0.5136256
207	0xbd8342ef	-0.06409251
208	0x3d23e029	0.040008698
209	0xbda1c879	-0.07899565
210	0x3e138844	0.1440745
211	0xbda26cb2	-0.07930888
212	0x3e139df0	0.14415717
213	0x3e8c02be	0.27345842
214	0x3dc40d66	0.09572868
215	0xbe4f562c	-0.20247716
216	0x3e7ae199	0.24500121
217	0xbecc388e	-0.39886898
218	0xbd77d005	-0.060501117
219	0x3d28a11a	0.041169263
220	0xbfbbd972	-1.4675734
221	0x3e355243	0.17707162
222	0xbd89a49a	-0.067208484
223	0xbd7bc0f8	-0.061463326
224	0xbdad2d95	-0.0845596
225	0xbf41856f	-0.7559423
226	0x3de88c93	0.113549374
227	0x3cfce863	0.03087253
228	0x3d2be6e5	0.041968245
229	0xbe12643e	-0.14296052
230	0x3d69b3ac	0.057056114
231	0xbf9f1544	-1.2428365
232	0x3dbcc241	0.092167385
233	0x3d9d94f6	0.07694428
234	0xbce21d2a	-0.027601797
235	0xbf02a42d	-0.5103176
236	0xbe860bc6	-0.26180857
237	0x3d937b72	0.0720128
238	0xbf56703b	-0.83765
239	0x3f137327	0.57597584
240	0x3b4aca01	0.0030943158
241	0x3e249d37	0.16075598
242	0x3e964dfb	0.2935637
243	0xbdb11ed6	-0.086484596
244	0xbef5ca38	-0.48005843
245	0x3ecc1600	0.39860535
246	0x3def869d	0.11695597
247	0xbe21f4f6	-0.15816101
248	0x3dbae579	0.091258
249	0xbf0020d4	-0.5005009
250	0xbdd4d919	-0.103929706
251	0x3e4e3e1c	0.2014088
252	0x3dd31bb1	0.10308016
253	0x3d2d635e	0.042331092
254	0x3e17299f	0.14761971
255	0x3e127cab	0.1430537

linear_relu_stack.12.bias f4 [20]
0	0x4022f249	2.546038
1	0xbf0e981f	-0.5570087
2	0xbe4376f2	-0.19088343
3	0xbf2afe86	-0.6679462
4	0xbf040439	-0.51568943
5	0xbef960c2	-0.48706633
6	0xbf213c5d	-0.6298273
7	0x3ec218b9	0.37909487
8	0xbe0d3b83	-0.13792233
9	0x3f3c78b3	0.7362167
10	0x3d04ded7	0.03243908
11	0xbd70795a	-0.05870948
12	0xbeed0a01	-0.46296695
13	0x3d7d3096	0.061813913
14	0x3d72f033	0.059311103
15	0xbe0b7f32	-0.1362274
16	0x3e3a25cc	0.18178481
17	0x3e43f93f	0.19138049
18	0x3ded30bc	0.11581561
19	0x3e8bb9dc	0.27290237
