weighted_loss/WL_parameters.pth (torch, 104647 bytes, 10 tensors)

linear_relu_stack.0.weight f4 [64, 180]
000000 ba 0c 56 bd b7 c7 f1 3b 85 cf ed 3e a3 51 a0 bd
       -0.05225823 0.007378544 0.46447387 -0.07828071
000010 5c 8f c3 be 5c e1 c2 3e bd 2f df be d8 da 1a 3d
       -0.38195312 0.3806256 -0.4359111 0.037806362
000020 d1 1f 0b be e4 1e 08 bf 69 c6 0b 3e 5c ef 4f be
       -0.13586356 -0.53172135 0.13649906 -0.20306152
000030 55 5b ef be 3d 83 98 3d 13 34 3e be 0a 50 9b be
       -0.46749368 0.07446907 -0.18574552 -0.30334502
000040 60 92 2a bc 68 13 e4 bd fd f0 5f be d7 10 e7 3b
       -0.010410875 -0.11136514 -0.21869273 0.007051568
000050 ec ab c1 bd 47 f1 16 be 33 bb 26 bd 54 e3 91 bd
       -0.094566196 -0.14740478 -0.04070587 -0.071234375
000060 c9 e8 ae bd 27 f6 3a bd b2 d9 ef bc 28 1a 81 bd
       -0.08540494 -0.045644905 -0.02927861 -0.06303817
000070 d9 d3 1f bd a0 a3 72 bc 4b 47 1e bd 7e fb 22 bd
       -0.039020393 -0.014809519 -0.03864221 -0.039790623
000080 64 ae 89 b9 40 3f f9 bb d2 13 62 bc df bf c3 3c
       -0.00026260607 -0.007606417 -0.013798671 0.023895202
000090 0c f9 57 ba 0a 68 7e bc 95 41 04 3d 48 8d 52 3c
       -0.000823871 -0.0155277345 0.032289106 0.012851067
0000a0 b6 57 07 3b 0b 4d 96 3c 25 6f 2b 3c 2f 02 75 bc
       0.0020651645 0.018347284 0.010463511 -0.014954134
0000b0 14 ab e1 3c ab ed 92 3c f6 35 3f bc 44 dd 76 3c
       0.027547397 0.017935595 -0.01167058 0.015067402
0000c0 7f 52 ef 3e 20 9f 11 3e 4a 0e 57 3f f4 09 bb 3e
       0.46742627 0.14220858 0.8400618 0.3653103
0000d0 b7 b9 0a 3f 8a b6 cc bd ed 8d 77 3f d1 49 9a 3e
       0.5418963 -0.09995754 0.96700937 0.30134442
0000e0 37 64 50 be 59 32 ca 3e 11 3f 37 3f dc 4b 2d 3e
       -0.20350729 0.39491537 0.71580607 0.1692347
0000f0 08 be 9a bd 7e 8b 0b 3f 61 bf 47 3f ae d5 6b 3e
       -0.07555777 0.54509723 0.78026396 0.23030731
000100 e1 4d 13 bd c2 16 de 3e 5c 02 c7 3e 74 a7 8a 3e
       -0.035962943 0.43376738 0.38868988 0.27080882
000110 ef 52 78 3c cd 24 28 3f 5e 74 b5 3e 40 85 c9 3e
       0.015156492 0.65681154 0.35440344 0.39359474
000120 b0 17 46 3d 48 26 42 3f 2d 87 89 3e 56 a8 0c 3f
       0.048362434 0.7583966 0.26860943 0.5494436
000130 e9 26 27 3e 84 ab 3c 3f 44 6a a3 3e d1 f3 cb 3e
       0.16323437 0.7369921 0.31917012 0.39834455
000140 69 75 12 be 2a 8f 8b 3e 0b 48 1c 3e 95 56 07 3e
       -0.14302601 0.27257663 0.15261857 0.13216622
000150 f3 a9 c5 bd b4 a3 0c 3e c7 cb d5 3b 7e 32 b7 39
       -0.09651556 0.13734323 0.0065245363 0.000349421
000160 e1 4e 51 be bd 53 78 bd e1 4a 4d 3d 12 37 d5 bc
       -0.20440246 -0.060626734 0.05012024 -0.026027236
000170 e2 7f 91 be 1f 2e 64 be c1 90 ed bd 61 8d 80 be
       -0.2841788 -0.22283219 -0.11599875 -0.25107864
000180 e3 03 1f be 9b ac 42 be f2 95 de 3c 9b ab 8d bd
       -0.15528826 -0.19011156 0.027171109 -0.06917497
000190 a3 72 37 bd 54 f0 06 be c9 44 8e 3b e1 b7 2e be
       -0.04478706 -0.13177615 0.004341696 -0.17062332
0001a0 f2 da ae 3d d5 d1 13 bd 3e cf 5e 3d a5 d8 26 bd
       0.08537854 -0.036088783 0.05439686 -0.040733952
0001b0 74 0c 41 3d 7e ad 2d be 78 87 c1 3d 5c 3c f3 3c
       0.047131017 -0.16960713 0.09449667 0.029691868
0001c0 b1 bc bb 3f d2 0e e2 be 63 a5 ff be bf fb e6 3f
       1.4666959 -0.44151932 -0.49930868 1.8045577
0001d0 50 0e 0d 3f 95 5a ad 3e 95 7d 4f be fe 02 00 3f
       0.55099964 0.3385817 -0.2026275 0.50004566
0001e0 67 e0 97 3e eb 52 f7 3e a5 fc 94 bf 26 77 63 3f
       0.29663393 0.4830545 -1.1639601 0.8885368
0001f0 f6 53 dd bd 94 d4 e2 3c cd 9a f6 be 0d 4f 5c 3e
       -0.1080703 0.027689256 -0.4816498 0.2151453
000200 d0 e6 c4 be e5 14 0c be 4a 8d b9 be 7f 53 b4 bd
       -0.38457346 -0.13679846 -0.36240608 -0.08804988
000210 a4 f0 a4 be f8 5a ce bd db 0f 05 bf 19 76 e4 3d
       -0.32214844 -0.10075945 -0.5197732 0.11155338
000220 83 bf 9d be 15 ba 24 be d9 4f 03 bf a9 3f 9d 3d
       -0.30810174 -0.1608661 -0.5129371 0.07678158
000230 ca 62 ba be 7e a0 13 3e 96 73 d1 be 6d cb cd 3d
       -0.36403495 0.14416692 -0.40908498 0.10048566
000240 65 86 cc bd 34 f7 bc 3d 1a 28 36 be ec 9b 9c 3d
       -0.09986571 0.09226838 -0.17788735 0.07646927
000250 37 06 54 bd 98 39 0c be 46 09 19 be 8e 03 ca 3b
       -0.05176374 -0.13693845 -0.14944944 0.0061649745
000260 bd e0 1e bd 11 9c 19 be a6 c7 c9 bc 41 56 82 bd
       -0.038788546 -0.15000941 -0.024631333 -0.06364108
000270 c0 c6 72 bc 84 cc b7 bd d6 51 8d 3d 86 21 9d bd
       -0.0148178935 -0.08974555 0.069003746 -0.0767241
000280 50 76 fb 3c e6 f0 39 bd 89 13 2f 3c 76 60 f1 bd
       0.030696064 -0.045395754 0.01068581 -0.117859766
000290 64 32 3d 3d e2 30 75 3c e6 22 62 3d 96 6e e4 bd
       0.046190634 0.014965268 0.055209063 -0.11153905
0002a0 51 73 80 3d cc a7 12 3d 89 6e af 3d b8 80 e4 bd
       0.06271995 0.035804555 0.08566005 -0.11157364
0002b0 18 12 2d bc cd e2 7a bd 68 50 5e bc 37 f1 bb bd
       -0.010563396 -0.06125145 -0.013568975 -0.091768675
0002c0 8f d2 44 3d 3b 51 20 bd c3 1e 10 3c 0b df 72 3c
       0.048052367 -0.039139967 0.008796397 0.014823685
0002d0 c1 f2 24 be ca 48 fd 3e 45 aa 74 be 2d 70 0c 3f
       -0.16108228 0.49469596 -0.23893078 0.54858667
0002e0 0b 8e 07 c0 8b 15 18 bf 55 2e b3 3b 99 ae 7e bd
       -2.1180446 -0.5940787 0.0054681697 -0.062178228
0002f0 98 01 e3 3c 7a 4a ae 3c d2 4b a6 bd 8e 34 94 bc
       0.02771072 0.021275748 -0.0811993 -0.018091466
000300 5c 3a a4 3c 31 96 85 bc 56 92 b9 bb e7 c6 03 3d
       0.02004736 -0.016306968 -0.0056631966 0.03217211
000310 78 d1 82 bc c7 c2 3a bb 5f fd 58 3c 10 88 a5 3a
       -0.015969023 -0.0028497444 0.013244002 0.0012629051
000320 36 d7 af 3b 27 10 43 3b 64 38 81 3b d4 20 63 3c
       0.0053662313 0.0029764266 0.00394349 0.013862807
000330 34 ed ff 3b 13 7e 59 bc f4 f0 00 3c 48 54 08 3c
       0.0078102592 -0.013274687 0.007869948 0.0083208755
000340 2e d9 02 bc 67 a0 c9 bb 37 9b 5b bb 9f 4d 35 bc
       -0.00798635 -0.0061531547 -0.0033509263 -0.01106587
000350 35 4b 82 3b 5c 6b 02 ba 60 2f 98 3b e1 2a 80 3c
       0.0039762505 -0.0004975104 0.0046443194 0.015645446
000360 b6 7d 00 bc 01 ca 65 3b d0 28 8a bb 50 8e 68 ba
       -0.007842472 0.003506303 -0.004216291 -0.0008871304
000370 66 7c 43 3c 66 a0 c0 bb 0e 7b e8 bb 15 61 25 3b
       0.011931514 -0.005878496 -0.0070947474 0.0025234867
000380 b7 14 1b bb e2 3a 40 ba a5 11 01 3b 20 6a b9 3a
       -0.002366347 -0.0007332993 0.0019694355 0.0014146008
000390 1d bb c1 be 26 bb 67 bd e3 fa 7a bf be ed b6 be
       -0.3783807 -0.056574963 -0.9803907 -0.35728258
0003a0 48 c9 f5 3e 10 f3 bd bf cc d3 07 c0 1f a7 88 3e
       0.48005128 -1.4839802 -2.122302 0.26690003
0003b0 a6 21 63 be 83 51 c7 bd f4 f0 c1 bd 16 a6 9b 3d
       -0.22180805 -0.09732344 -0.09469786 0.07600038
0003c0 2c ea 15 bd 47 95 62 3d a0 35 a6 3d 1a 27 34 3e
       -0.036600277 0.055318143 0.08115697 0.17593041
0003d0 dc fa 68 bc 41 c9 1e 3e 2b 12 aa 3d 52 85 81 3e
       -0.014219966 0.1550646 0.083042465 0.25297028
0003e0 53 74 f6 3b 51 ef 28 3e 2d 3f 03 3e 50 a4 19 3e
       0.007521191 0.16497542 0.12817068 0.15004086
0003f0 fd 5d c0 3c ce 77 fa 3d be 33 5e 3d 49 80 f5 3d
       0.023482317 0.12229882 0.054248564 0.11987359

linear_relu_stack.0.bias f4 [64]
000000 90 0d a7 bf c6 22 a8 bf 02 ce dd bf ad ee 89 bf
       -1.3051014 -1.3135612 -1.7328494 -1.0775963
000010 2d bd 06 40 3d 3e e5 3f 68 f4 b1 bf 47 9e bb be
       2.1052964 1.7909619 -1.3902712 -0.36644194
000020 8b ce 70 bb fd e4 68 be e9 78 8d 3e 39 1f bb 3a
       -0.0036744203 -0.22743602 0.2763131 0.0014276273
000030 41 64 f4 3f e8 13 1b bf cc 18 97 3e 56 5a bd 3e
       1.9093095 -0.6057725 0.29511106 0.36982983
000040 7a 4d 1b 3f ba 89 d4 bf 28 9a 7d be 89 b2 13 c0
       0.60665095 -1.6604531 -0.24765837 -2.307772
000050 00 eb 75 3f 8e 71 cb 3e 5b b6 17 3e 42 8f 1b bf
       0.96061707 0.39735073 0.14815657 -0.6076547
000060 ad e1 26 bf ed 0c 7b be 71 ec 13 3f c5 94 29 be
       -0.65188104 -0.2451665 0.57782656 -0.16560657
000070 3a 41 6b be 1f 37 67 bf 93 95 81 bf 38 62 85 3e
       -0.229741 -0.90318483 -1.0123771 0.26051497
000080 d5 af 38 c0 ff f9 a1 be 7d 6d af bf ff 25 8d be
       -2.885732 -0.31636044 -1.3705288 -0.2756805
000090 c9 53 23 3e ed 6d f0 bd 5e ab a8 be aa 49 07 40
       0.1594993 -0.11739717 -0.32943243 2.113871
0000a0 b0 55 b0 bf e2 02 89 3f 52 74 8a 3e 57 d4 89 3e
       -1.377615 1.0704005 0.2704187 0.26919815
0000b0 09 c5 17 c0 59 7b 1d 3f 74 49 3a 3e 97 f1 1c 3c
       -2.371401 0.6151634 0.18192083 0.009579084
0000c0 7d 38 2e 40 94 1b 69 bf f9 25 31 3f 4d 40 72 bf
       2.7221978 -0.91057706 0.69198567 -0.94629365
0000d0 b8 38 8f bf 89 da 74 bd 0e 60 bc 3f 1f 21 29 3f
       -1.1189184 -0.059778724 1.4716814 0.66066164
0000e0 74 87 24 bf af 90 07 3d b1 c5 17 bd 41 52 38 be
       -0.64269185 0.033096965 -0.037053768 -0.18000127
0000f0 6c b0 af 3f 4c c8 87 bf e9 b2 33 bf b6 eb 29 bd
       1.3725715 -1.0608001 -0.7019487 -0.041484557

linear_relu_stack.3.weight f4 [64, 64]
000000 0f d8 09 3e 20 7a 8d 3f 14 e0 db 3e 55 3d dd be
       0.13461326 1.1052895 0.42944396 -0.43210855
000010 16 c0 c5 bf 50 8e 4d 3c 78 bd 44 be 9f b9 a5 3d
       -1.5449245 0.012546137 -0.19212902 0.08092045
000020 64 80 b9 3e 4a 4c 9c be 30 aa 68 bd 90 55 5c bd
       0.36230767 -0.30526954 -0.05680293 -0.053792536
000030 f3 8a 05 bf 6e 42 48 be d8 1c f6 3d 39 00 83 be
       -0.52165145 -0.19556591 0.1201722 -0.25586107
000040 96 dc fe bd e3 c7 e1 be 8c 81 28 3e 6d 3e f7 be
       -0.12444417 -0.44097814 0.16455668 -0.48289815
000050 fe 17 a9 be 44 86 3d 3d 87 c3 32 3c 54 5d 30 bd
       -0.33026117 0.046270624 0.010910875 -0.043057755
000060 a2 36 12 bd 0c 14 18 3e a6 69 9c 3d a4 0d a6 3e
       -0.035696633 0.14851397 0.07637338 0.32432282
000070 29 7c 4c be 52 58 d2 bd b4 7a 9b 3f a8 6f ce be
       -0.19969238 -0.10270752 1.2146821 -0.40319562
000080 77 66 e6 3c 13 66 4d be fc 5d 05 3e f9 b7 b5 bd
       0.02812503 -0.2005847 0.13024133 -0.088729806
000090 9c 8e 2b 3d fb f0 4f bc b0 1e 0b be 9f bf cb be
       0.04188405 -0.012691732 -0.13585925 -0.39794633
0000a0 3f 30 a9 3d 1c 61 b2 bd 1e ea 43 3f 34 73 86 3d
       0.08261155 -0.087099284 0.7652911 0.06564942
0000b0 f2 01 05 3f 78 1e cc be 8d b9 07 3e d3 8e 01 be
       0.51956093 -0.39866996 0.13254376 -0.1265214
0000c0 ae 76 26 3e 88 17 e7 3d 86 4a 89 be d6 01 e3 3d
       0.1625621 0.11283785 -0.2681467 0.110843346
0000d0 87 32 8d be 2f 26 a3 bb 09 91 80 be ca 55 90 3c
       -0.27577612 -0.004978917 -0.25110653 0.017619032
0000e0 90 38 f1 3d 4b 0e 7b be 9f ce 17 be 3f 66 4e 3d
       0.117783666 -0.24517171 -0.14824913 0.05039048
0000f0 ba d9 01 be 08 03 51 3c 9d 36 32 3e dd 73 9d bc
       -0.12680712 0.01275707 0.17403646 -0.019220287
000100 fd a2 e2 bc a7 71 70 3e 3d 15 a0 3d f1 35 75 be
       -0.02766561 0.23480855 0.07816551 -0.23946358
000110 02 35 60 bd ea d6 c2 3d 64 8a 52 be 47 07 81 bc
       -0.054738052 0.09513648 -0.20560604 -0.01575054
000120 41 3d 0c be 18 f9 87 3d 47 cb 5b bd 99 ee 8e bd
       -0.13695242 0.06639308 -0.053660657 -0.06979103
000130 83 cf ba be 57 82 31 be b9 18 3f be 5c 4a d5 3d
       -0.36486444 -0.17334877 -0.18661775 0.104145736
000140 90 04 a6 bc fc 6a d5 be 4c 9f a6 3e 6c 8d 12 3e
       -0.020265847 -0.41683185 0.3254341 0.1431176
000150 64 77 1d 3d 72 05 32 bd b6 63 b3 3d 00 e1 1a be
       0.038443938 -0.043462224 0.08759253 -0.15124893
000160 92 29 11 3d d2 58 32 3d de 26 b6 bd 1e e4 92 3e
       0.035440035 0.043541737 -0.08894132 0.28689665
000170 34 e2 0c 3e 23 4d ae 3c bf c9 62 3e 14 69 87 3d
       0.13758165 0.021277016 0.22147273 0.06611839
000180 61 4f 47 be 4a 56 12 bf e7 dc 2b 3c 59 d4 54 3d
       -0.19463874 -0.57162917 0.010489679 0.051960323
000190 9a 86 d8 bd a6 32 c7 3d 41 6e e0 bd 0d d4 07 3e
       -0.10572548 0.09726457 -0.10958529 0.13264485
0001a0 22 0b 7c 3d 7c d7 c2 bd 74 83 11 3f d9 18 91 be
       0.061534055 -0.09513757 0.56841207 -0.2833927
0001b0 a7 17 e5 3d 6e 79 8b 3f 44 67 bc be e2 11 97 bc
       0.11186152 1.0896432 -0.36797535 -0.018441144
0001c0 3c 9f 57 3f 78 18 c3 bd 93 4d 81 3c 53 33 61 3e
       0.8422735 -0.095261514 0.01578406 0.21992235
0001d0 1b 27 1e be f2 71 a3 bd 54 92 f8 bd 8e fd 71 be
       -0.15444605 -0.07980718 -0.12137285 -0.2363188
0001e0 2e ba 3a 3d f2 c6 55 3e 87 d4 21 bd f0 f6 f6 3d
       0.04558771 0.20876673 -0.039509322 0.12058818
0001f0 a0 59 c3 bd 77 32 40 3d c4 95 83 bc 73 9c d7 3c
       -0.09538579 0.046923127 -0.016062625 0.026319718
000200 60 6f 8e bd 00 f9 b3 be 7c 3d aa be 2c 48 82 be
       -0.06954837 -0.3515091 -0.33250034 -0.25445688
000210 64 18 54 3c a8 ea 55 3e e1 86 2a be f9 73 90 3c
       0.012945268 0.20890296 -0.16653015 0.017633425
000220 65 ed 16 bd e3 f7 09 3d fa 14 17 3f 49 d5 5f be
       -0.03684749 0.03368367 0.5901638 -0.21858706
000230 50 ce 20 3f 0a 96 3d 3e 19 5b af 3e 1e 27 71 3e
       0.6281481 0.18514267 0.3424919 0.23550078
000240 25 50 3b be e1 59 ef 3d fc 59 0d 3e af 3b 0b bd
       -0.18292291 0.11687065 0.13803858 -0.033992466
000250 ef c4 89 be 4d 99 38 be 30 dd 2c 3e 18 66 09 be
       -0.2690806 -0.1802723 0.16881251 -0.13417852
000260 28 d2 ce bc b2 99 ce bd 32 5a 24 be 0a 17 2d 3e
       -0.025246695 -0.10087909 -0.16050032 0.1690332
000270 9c 5d 9a bf f8 0c 4a be d9 b1 c4 be 95 05 a6 3e
       -1.2059817 -0.1973151 -0.38416937 0.32426134
000280 ef 6a 4c 3e cd 1f e2 bd 52 ab a5 3c db e5 74 3d
       0.19962667 -0.11041222 0.020223293 0.05978952
000290 1b 69 9b be ad 48 a3 3e 27 6a 3f be 16 ac bf 3d
       -0.30353627 0.31891385 -0.18692838 0.09358995
0002a0 9a 1e 44 be e0 ac 2c be bf 73 19 3d 24 38 12 3e
       -0.19152299 -0.16862822 0.0374639 0.14279228
0002b0 23 bd c3 be c8 9f 41 bd cf 16 a1 3e e7 ed 4c 3e
       -0.38230237 -0.04727152 0.31462714 0.20012628
0002c0 fc 73 74 bd 57 3c 1d 3d 6e 59 2f 3e 8a 80 78 3e
       -0.059680924 0.038387623 0.17123958 0.24267784
0002d0 ff 7a 89 3e 9e 22 02 bd 8a 7e 2a 3e 7e 88 5e 3d
       0.2685165 -0.031771295 0.16649833 0.054329388
0002e0 94 39 15 be ab 16 80 bd 49 a1 62 3b b0 25 bc 3d
       -0.14572746 -0.062543236 0.0034580997 0.09186876
0002f0 2a 87 9f be a9 72 23 bd 06 24 25 3d c8 34 b5 bd
       -0.3115781 -0.03990427 0.040317558 -0.08847958
000300 6d 44 3a 3e c1 8c 5a 3e c0 f5 04 3e e5 cb 04 bd
       0.18190165 0.21342756 0.12984371 -0.03242101
000310 c1 36 1d 3e ea 62 43 be 20 06 1e 3d ad 1d d9 3c
       0.15352918 -0.19080701 0.03858006 0.026503408
000320 b4 ba 20 bd a8 33 e9 3d b5 f9 e8 3d 13 ff e3 3e
       -0.039240554 0.11386806 0.11375753 0.44530544
000330 5a 85 1d 3e b7 f6 b2 3c d3 9c 17 be e7 ec ce be
       0.15382901 0.021846158 -0.14805917 -0.40415117
000340 ce f9 2f 3e 7d f4 1c 3e f8 c5 80 bd db cb 8e 3e
       0.17185137 0.1532764 -0.062877595 0.27889904
000350 4c fb 47 be ad 51 15 3d 97 b0 15 3e 0f 1f 75 3e
       -0.19529456 0.036454845 0.14618145 0.23937629
000360 8b e3 1e 3d 23 1c 90 3d 40 c1 bb 3d 7d 86 23 bd
       0.03879122 0.07036617 0.09167719 -0.03992318
000370 5c 71 1d be 59 dd ad 3d 4e 0c 25 3e 23 b1 b3 bd
       -0.15375274 0.08489484 0.16117975 -0.087740205
000380 73 d7 37 3e 99 76 5b 3e e3 44 1e be b2 fc bf 3c
       0.17953281 0.2143196 -0.15455966 0.023435924
000390 29 b5 72 bd 60 0c cf 3c 80 11 26 3e 36 88 3e 3c
       -0.0592548 0.025274456 0.16217613 0.011629155
0003a0 ce b0 47 bc 0a 80 9c 3d f8 20 41 3d b4 e1 82 3d
       -0.01218815 0.07641609 0.047150582 0.06390706
0003b0 4a a1 2b 3e 7d 2d 7b bb 43 c2 0b be 47 27 9b 3d
       0.16760746 -0.0038326674 -0.13648324 0.07575851
0003c0 5d 2b 97 bd 42 1c a7 bc d0 d6 79 bb 10 96 4d be
       -0.07381318 -0.020399217 -0.0038122423 -0.20076776
0003d0 db 88 84 bd d2 b3 8a 3c 17 16 9b 3d b3 b9 69 be
       -0.064714156 0.016931448 0.07572573 -0.22824745
0003e0 86 78 5e 3e 2f 4d 47 be d4 fb 0a be c2 b5 4a 3d
       0.21725664 -0.19463037 -0.13572627 0.049489744
0003f0 74 fe 70 be 10 18 e4 3c 16 7b 0d be 29 f5 2e 3e
       -0.23534566 0.027843505 -0.13816485 0.17085709

linear_relu_stack.3.bias f4 [64]
000000 9c 9f 39 bf f3 2f 5e be 16 f4 31 3f 4d 3d ce bf
       -0.7250917 -0.21697979 0.6951307 -1.6112458
000010 6b 12 ea bc 04 61 aa bf e6 6f 76 3f eb e0 6e 3f
       -0.028573235 -1.3310857 0.96264493 0.9331195
000020 85 e0 2f be d6 04 01 3e b5 84 17 3f 2b 9d 7a 3f
       -0.17175491 0.12599501 0.5918687 0.9789607
000030 9e 61 ae 3e d4 34 d5 be a8 16 31 bf e0 4d d1 bf
       0.3405885 -0.41641867 -0.69175196 -1.635189
000040 6c 36 43 bf 66 14 6c bf 3d 85 01 3f 35 c8 e8 3e
       -0.76254916 -0.92218626 0.5059393 0.45465246
000050 a0 5a 9f be 7d da b7 bd 31 26 31 3e b0 6e 22 bf
       -0.3112383 -0.0897722 0.17299725 -0.63450146
000060 56 3c 73 bf 08 9c 82 bc a4 ca 26 be 19 c0 93 3e
       -0.9501394 -0.015943542 -0.16288239 0.28857496
000070 99 a6 8a 3e a4 72 4e 3f 4a 5b 9f bf 21 4e 3e bf
       0.2708023 0.8064368 -1.2449734 -0.74337965
000080 3c 25 0d 3f 83 24 f5 be 47 0e 82 3f 0a 79 fd 3f
       0.5513494 -0.4787942 1.0160607 1.9802563
000090 da 5c 10 bf c6 1a c9 3f e8 4c e0 bf 93 bf 88 3d
       -0.5639168 1.5711296 -1.752347 0.06677165
0000a0 7b 04 9f bf ce 2a ea 3e 09 15 b4 bf 24 9f e4 bd
       -1.2423242 0.45735782 -1.406892 -0.11163166
0000b0 7d e6 b0 bf 13 8a 0d be 33 41 7e be b6 d4 04 bf
       -1.382034 -0.13822202 -0.24829559 -0.5188707
0000c0 31 15 9b 3e 5c 44 a0 3e 3e 95 b5 be 7b 09 85 be
       0.30289605 0.31302154 -0.35465425 -0.25983796
0000d0 a8 f6 47 3f 16 53 46 3f ce cb 0b c0 a9 e3 fc 3c
       0.7811074 0.7747053 -2.1843143 0.030870276
0000e0 28 48 21 bf e0 b7 a1 bf 9d 74 87 be a7 72 f1 3e
       -0.63000727 -1.2634239 -0.26456156 0.47157785
0000f0 1b 34 99 be eb 50 8a be 38 87 55 3f e5 b4 61 bb
       -0.29922566 -0.2701486 0.8340945 -0.0034440097

linear_relu_stack.6.weight f4 [64, 64]
000000 1b 52 8d 3e 1f 41 78 3e 00 87 c6 3d 12 25 fe 3c
       0.27601704 0.24243592 0.09693718 0.031023536
000010 0e d4 3a 3e 49 02 63 3e 58 a6 4a be 28 c1 9f be
       0.18244955 0.2216884 -0.19790018 -0.31202054
000020 3c 85 03 3d aa 3e 29 bf 04 55 18 bd 19 b3 46 be
       0.032109484 -0.6611124 -0.037190452 -0.19404258
000030 d3 f5 18 3f 1f 7c 4b bd 7e 8a 9b 3c 8e 79 85 3d
       0.597501 -0.049678918 0.018986937 0.06517325
000040 35 af 4d 3e cf 29 fd 3d eb ed f6 bd 19 4d 35 be
       0.20086367 0.1236149 -0.12057098 -0.17705192
000050 39 4e 85 3d 16 2e 0e 3f 2c 31 c5 be 9a 4d 59 be
       0.065090604 0.5553907 -0.38514078 -0.21221009
000060 09 ed 3f be 2e c1 3a be 31 1c 6e bd 36 eb 2e 3d
       -0.18742765 -0.18237755 -0.058132354 0.042704783
000070 99 df 1e be 3a de da be 16 db 0e be 49 67 0e 3e
       -0.15514983 -0.4274767 -0.13950762 0.13906588
000080 04 c5 a6 3d b7 ab 24 be 36 96 8c 3d 34 03 86 3d
       0.081430465 -0.16081129 0.06864588 0.0654358
000090 6d 20 40 3e ef 66 24 3e 7e 04 35 3e c6 1b d1 bd
       0.1876237 0.16054891 0.17677495 -0.102103755
0000a0 51 f5 47 3d 43 69 8f 3e c7 08 2b bc 61 e3 de bd
       0.048817936 0.28009996 -0.010439104 -0.10883213
0000b0 17 c5 0a be 5d 01 75 3d 1c eb ca 3c 9c e3 e0 3d
       -0.13551746 0.059815753 0.024770312 0.10980913
0000c0 37 a6 01 3e 4b 75 dd 3d 85 77 f6 3d e1 5f 65 be
       0.12661062 0.108133875 0.12034515 -0.22399856
0000d0 cb 65 5f 3c 47 a1 df 3b 8c 1a 34 be 56 a0 27 3d
       0.013635109 0.0068246457 -0.17588252 0.040924393
0000e0 4a ca 84 be 48 be 2d be dc ae f3 bd fc ad 16 3c
       -0.25935584 -0.16967118 -0.11898586 0.009196755
0000f0 e4 11 19 3d ed 36 6a 3e 00 3f 31 3e e3 bc a4 3d
       0.037370577 0.22872515 0.17309189 0.0804384
000100 2f 30 cd 3c 01 53 81 bd da 39 8d bd 93 fa dc 3d
       0.02504739 -0.0631466 -0.068958 0.10789981
000110 9a d8 72 be ab 7e 34 3c f8 ef b9 3d a6 3c 01 3d
       -0.2371544 0.011016528 0.090789735 0.03155198
000120 78 61 0d 3e 4a 79 46 3d ac dd f2 bc 7c ad 35 3e
       0.13806713 0.048455514 -0.029646717 0.1774196
000130 0b f4 6c bd 46 9d e6 3d ff fb 8d 3e 69 a7 17 bd
       -0.057849925 0.11260466 0.2773132 -0.03702489
000140 f2 db 9e 3d e8 c3 ec 3d 9f 25 7b be 56 22 4f bd
       0.07756795 0.11560804 -0.2452607 -0.050569855
000150 95 b2 a4 3d 1e 5d 30 bc ed e0 89 bd b7 c3 4d 3e
       0.08041874 -0.010764388 -0.06732354 0.2009419
000160 f0 1a 4e 3d c6 e8 44 3e 87 67 9e 3d a2 cd 91 bd
       0.05031866 0.19229421 0.0773459 -0.071192995
000170 ba a6 cb 3d 7f 45 9e 3d 26 28 91 bd 39 a3 0e 3e
       0.0994391 0.07728099 -0.07087736 0.13929452
000180 d6 46 f5 3b 3d 8d df 3d 26 8e 3f 3c ab 3e 47 be
       0.007485251 0.10915611 0.011691606 -0.194575
000190 d2 a0 e2 3c b8 73 a1 3d be c4 5f 3d 58 70 79 bd
       0.027664576 0.078834 0.054630987 -0.060898155
0001a0 fc 7e 0e be 60 c1 f5 3d b5 37 cc 3e 39 07 00 3d
       -0.13915628 0.11999774 0.3988625 0.031256888
0001b0 67 f5 1a be 1a 94 3d 3c 2f c9 b2 bd 78 00 21 bd
       -0.15132676 0.011570955 -0.08729779 -0.039307088
0001c0 b1 56 19 3c 35 13 c2 3e e6 de d2 3d c5 c9 ca 3d
       0.009359048 0.3790528 0.10296421 0.09901766
0001d0 77 10 a1 3e 3f cb 72 be 6a 72 56 3e 52 f7 d4 3c
       0.31457874 -0.23710345 0.20942083 0.025996838
0001e0 32 c4 74 3d c8 52 83 3e 98 d0 b2 bd 2c e7 22 3d
       0.05975742 0.25649095 -0.08731192 0.039771244
0001f0 65 f3 97 bb 61 b7 ce be 57 e9 82 3e 25 3d 90 be
       -0.004637169 -0.40374282 0.2556865 -0.2817165
000200 a3 24 fc 3e 5a 45 e7 bd fb f2 ec 3d 61 da 1c 3d
       0.49246702 -0.11292525 0.11569782 0.0382942
000210 e0 7b a0 3e 41 ae 5c 3e e1 aa e2 be 17 df 3b 3e
       0.3134451 0.21550848 -0.44270995 0.18346821
000220 36 ff 14 3d fe 4b f9 be 05 19 16 3e 01 ac 85 bd
       0.0363762 -0.4869079 0.14657982 -0.06526948
000230 bf 7b 4d 3e 4e d6 97 3e ba 26 ad 3d 0a 85 1a bf
       0.20066737 0.2965569 0.08454652 -0.6035925
000240 3d 03 75 3e f2 24 41 3c bc d7 72 3d 32 58 0f 3e
       0.23927017 0.011788594 0.05928777 0.13998488
000250 0e f0 8a 3e 49 83 25 be d8 34 4f bd 37 74 c2 be
       0.27136272 -0.16163363 -0.050587505 -0.3797929
000260 e1 bf bb 3d ff 97 54 3b 4f f8 17 bd e8 f8 88 3c
       0.09167457 0.003243923 -0.03710204 0.01672025
000270 cf b5 86 3e 90 03 18 bf 4a 27 d0 3e 97 4d af 3e
       0.26310584 -0.59380436 0.40654975 0.34238884
000280 e1 45 d9 3d 94 3e 1d 3e c7 1d d2 3d 3d 77 11 bb
       0.106090315 0.15355903 0.10259586 -0.0022196316
000290 33 93 1e be 7c 91 51 be 33 e9 00 bf 11 d2 fd 3c
       -0.1548584 -0.20465654 -0.50355834 0.030983957
0002a0 1f a9 0a 3f b8 6e 02 be 81 83 af be 12 c7 82 3e
       0.5416431 -0.12737548 -0.34280017 0.25542504
0002b0 16 28 84 3e 35 0a 80 be 9f 58 7c be 30 63 37 be
       0.25811833 -0.25007787 -0.24643181 -0.17908931
0002c0 2b 86 d2 3a 05 b0 51 bd b0 d3 1b 3d 23 e8 17 bf
       0.0016061714 -0.051193256 0.038043678 -0.5933859
0002d0 36 97 d6 3d 04 be bf be 96 5f 27 be e8 95 38 bd
       0.1047806 -0.37449658 -0.16345057 -0.045064837
0002e0 f5 7a 57 be 26 ca 3d 3d 37 20 c5 bb 42 45 e3 be
       -0.21042998 0.046335362 -0.006015803 -0.44388777
0002f0 42 52 aa 3e da 67 22 be 25 69 35 3e 55 bc 89 be
       0.33265883 -0.15859929 0.1771589 -0.26901498
000300 b6 58 86 bd 74 b6 9b bd c2 f3 99 3e fd 79 30 3e
       -0.06559889 -0.076031595 0.30068785 0.17234035
000310 00 17 7d 3d 65 92 41 bc b0 35 ad 3c 52 c2 2f 3e
       0.061789513 -0.011814688 0.021143764 0.17163971
000320 c6 12 94 be a2 f5 0d 3f b9 5c 5b 3e 8e a4 8e be
       -0.28920573 0.5545293 0.2142209 -0.2785992
000330 ac 80 81 bd a9 f7 09 3d 2d b2 b2 3e 0a 29 f7 3d
       -0.0632337 0.033683453 0.34901562 0.120683745
000340 4e 35 10 be c2 10 1e 3e e5 d3 95 bd 5b 18 0b 3e
       -0.14082834 0.1543608 -0.07315806 0.1358351
000350 1c 65 10 3e d8 ff 07 3f 34 02 73 be ee ee 48 be
       0.1410107 0.5312476 -0.23731309 -0.19622394
000360 05 f9 af be 2d ee 33 3e 83 90 62 bd fc 4a a4 3e
       -0.34369674 0.17571326 -0.0553136 0.3208846
000370 da 05 1c 3e 4c ea 42 bf 8c 2a a9 bd 7d af 61 3e
       0.15236607 -0.7613876 -0.08260068 0.220396
000380 fc cd 68 3e a1 b0 b4 bc 67 7e b5 3d ee f4 93 3c
       0.22734827 -0.02205688 0.08862 0.018061128
000390 32 d9 64 be 60 ee c7 3e 87 48 35 be 98 e3 a0 3d
       -0.22348478 0.39049053 -0.17703448 0.0785591
0003a0 dc a3 56 be 39 aa 6d be e4 64 87 be 2f a8 8b bd
       -0.20960945 -0.23209466 -0.2644416 -0.06819188
0003b0 5d 98 a1 3c fc fb 8e 3c 67 53 01 3e 57 04 e8 bd
       0.019725973 0.01745414 0.12629472 -0.11328953
0003c0 d8 d8 51 bd a0 a8 6b 3e 01 bb 13 3e db 96 56 3e
       -0.05123219 0.23013544 0.14426805 0.20955984
0003d0 1c 9e c7 bc 94 80 75 3e b2 30 3f be 49 d3 bb bd
       -0.024367385 0.2397483 -0.1867092 -0.09171159
0003e0 88 4b f5 bd aa be 9c bd d2 7e a6 bd cf 96 9d be
       -0.11977297 -0.07653554 -0.08129658 -0.3077912
0003f0 11 9c da 3c 63 a1 13 3e 1c 68 9d 3d 69 81 d1 be
       0.026685746 0.14417033 0.07685873 -0.40919045

linear_relu_stack.6.bias f4 [64]
000000 e9 44 07 3f 03 fb 03 bf 16 d0 91 be f8 44 4b 3f
       0.52839524 -0.5155489 -0.2847907 0.7940211
000010 ed 0a ef 3d 46 8a c7 39 07 9a b9 3e 5a cd 43 c0
       0.11672006 0.0003805926 0.36250326 -3.0594087
000020 a4 e4 07 be 0d 19 a1 bf 98 36 b1 be 2d 68 60 3f
       -0.13270813 -1.258577 -0.34611964 0.8765896
000030 86 3e 91 be 08 68 82 3e 45 f5 47 bf f8 39 92 3e
       -0.28368014 0.25469995 -0.78108627 0.28559852
000040 8d 34 06 3f b8 14 b4 3e 32 aa 60 be f7 4f 41 be
       0.52423936 0.35172057 -0.21939924 -0.1887816
000050 dd 56 60 3f fa f3 cc 3f 98 b5 0b be e2 f5 2f 3f
       0.8763254 1.6011956 -0.13643491 0.6873456
000060 04 62 42 bd 1c 14 92 3f d3 d0 8c bf 8f 0c 3b 3f
       -0.047456756 1.1412387 -1.1001228 0.7306604
000070 cb 44 e7 3f 5a 9d 5d bf 3d d0 00 3f 38 14 97 bf
       1.8067869 -0.86568224 0.50317746 -1.1803045
000080 12 c0 69 3e 9b 4b 89 bf 19 63 ce 3c 3d 72 bb 3e
       0.22827175 -1.0726198 0.025193738 0.36610594
000090 4e 00 d9 3d 8c a1 f9 3e 11 a2 62 3f f2 82 34 3f
       0.10595761 0.48756063 0.88528544 0.70512307
0000a0 8f 25 ba 3f 42 0c 12 3f 19 ff b3 3d 3f 51 11 3f
       1.4542712 0.57049954 0.087888904 0.56764597
0000b0 a0 9b ca bf 92 d5 75 3f 06 94 bd 3f 0d 14 31 3f
       -1.5828743 0.9602901 1.4810798 0.6917122
0000c0 63 70 c3 3f 5d f1 51 3f a9 c7 b8 bf 0b 9f 4f bf
       1.5268673 0.82008916 -1.4435931 -0.81102055
0000d0 3e 71 cc bf 23 a2 83 3f 94 86 58 3f 5e 0e 89 3f
       -1.5972059 1.0283855 0.8458035 1.070751
0000e0 05 c1 d6 bf 1b 47 d2 3e 48 17 a1 3f 2e 5d 58 3f
       -1.6777655 0.41069874 1.258523 0.8451718
0000f0 72 e0 a0 bc ca 4d 03 be 93 ab 6e 3f b2 cd 80 3f
       -0.019638274 -0.12822643 0.9323055 1.0062773

linear_relu_stack.9.weight f4 [64, 64]
000000 c8 21 83 3d 56 23 23 3d a2 3c 0d 3e 18 51 6b bd
       0.06402928 0.03982862 0.13792661 -0.057450384
000010 51 50 b2 bd 8e 82 cc bd 02 cf 21 3e 5c e9 83 be
       -0.087067254 -0.09985839 0.15801623 -0.25763977
000020 30 34 39 3e dc 13 16 3e c4 bb 9f be 8b ec 85 3d
       0.18086314 0.14656013 -0.3119794 0.065392576
000030 17 70 eb bd 7c ee f2 bd 66 0c 5e 3e 95 ef 9c 3e
       -0.11495989 -0.118618935 0.21684417 0.30651537
000040 17 99 5b 3d 4a c2 c6 be 66 41 2f bc 67 1d 14 3e
       0.053612795 -0.38820106 -0.010696745 0.14464341
000050 8d 9d 15 bd 75 bf 86 be 7e dc 7f 3d e0 bf 91 3e
       -0.036527205 -0.26317945 0.062466137 0.28466702
000060 f1 6d bc 3d cf 7f dc 3d 7c 5e d8 3d ed d0 a8 3e
       0.09200657 0.10766565 0.105648965 0.32971898
000070 49 0a 2e 3e b2 8f 5e be fb 10 1b be 46 1c 72 be
       0.16996111 -0.21734503 -0.15143196 -0.23643598
000080 31 93 88 bd b2 51 3a 3d 36 6a 80 3d 2c e9 42 3e
       -0.066686995 0.045488067 0.06270258 0.1903426
000090 e7 f4 9c be 07 f5 30 be 8a 79 22 be ef 9a a2 3e
       -0.30655596 -0.1728097 -0.15866676 0.3175883
0000a0 bd 00 f0 bd d2 39 89 bc 11 9f b5 3c 69 84 3e 3c
       -0.11718891 -0.016751204 0.022170575 0.011628249
0000b0 9f ef 7f 3c 21 53 43 3e d8 1f 36 b9 85 59 70 3c
       0.015621095 0.1907468 -0.00017368735 0.014669781
0000c0 15 da bd bd ab 47 92 3d 41 6e a9 be ce 40 02 3d
       -0.092701115 0.07142576 -0.3309193 0.031800084
0000d0 6e f5 c3 3d ee 56 b6 bd fe c3 af 3d 65 88 52 3e
       0.095682964 -0.08903299 0.085823044 0.20559843
0000e0 d3 69 f6 bd 38 ed 17 bf d8 05 de 3e e4 f7 64 3e
       -0.12031903 -0.5934634 0.43363833 0.22360188
0000f0 c5 50 a4 bd 9d 6e bb bb e0 f9 68 3e b5 50 60 be
       -0.08023218 -0.0057199732 0.2275157 -0.21905787
000100 6d 5c 53 3e da 3f a8 be 7c 77 5b 3e 98 cf 25 be
       0.20640726 -0.32861215 0.21432298 -0.16192472
000110 fc 68 da 3e 31 a3 e2 3e 86 18 59 be b7 f7 5e be
       0.42658222 0.4426513 -0.21200761 -0.21774183
000120 27 20 41 be 8c b8 fd 3c 92 df aa bb 8c 5e a7 3c
       -0.18859921 0.030971788 -0.00521464 0.020430826
000130 7e b2 58 3e 2f 5d 40 bd 38 3d da 3e e4 60 a2 3d
       0.2116184 -0.046963867 0.4262483 0.07928637
000140 c4 97 46 be 65 4b c7 be 88 d7 5a b9 7a 81 ff 3e
       -0.19393831 -0.3892471 -0.00020870392 0.4990347
000150 b2 a2 02 bd e4 c7 c1 bd e8 9c 28 3f b5 c9 9f 3c
       -0.03189344 -0.09461954 0.6586442 0.019505361
000160 2e c6 31 3e de 59 3a 3e 7f 83 91 bc 60 95 d4 bc
       0.17360756 0.18198344 -0.017762898 -0.025950134
000170 f4 1d fc be 5d 7e cf bd 41 35 63 3d 8f 23 48 3e
       -0.49241602 -0.10131524 0.05547071 0.19544815
000180 76 a7 ad bd d9 95 97 3c c5 cc ab 3e 81 a9 ae bc
       -0.08479206 0.01850407 0.33554664 -0.02132106
000190 16 2b 12 be 47 e4 8a 3d 18 f6 61 bd 88 57 ec 3c
       -0.14274248 0.06781822 -0.055166334 0.028850332
0001a0 73 81 5f 3e e7 f2 30 3d 1b 1c 26 3e b5 9e ab bd
       0.21826725 0.0432004 0.16221659 -0.0837988
0001b0 e4 64 78 bd 15 9c 8c be 3d 03 59 bd bf 55 6f 3e
       -0.06064309 -0.2746283 -0.052981604 0.23372553
0001c0 c3 a7 4d 3d 98 c8 a6 bc 0e 07 b3 bd 44 71 95 be
       0.05020882 -0.020359322 -0.0874158 -0.29187977
0001d0 a5 27 8f bc af 20 d7 bd f9 3d 01 3e 7c 18 25 be
       -0.017474959 -0.10504281 0.12621297 -0.16122621
0001e0 92 b0 9e be 5a 01 10 3e e9 a2 9f be f9 8a 16 be
       -0.30994087 0.14063016 -0.31178978 -0.14701451
0001f0 c8 51 f6 bc 25 bb bf bc 69 f7 fd bd 36 f5 b5 bd
       -0.030068293 -0.023404667 -0.12400705 -0.08884661
000200 04 1c 73 3e 5d 00 d8 bd 82 0f 51 bd 46 d6 fb bd
       0.23741156 -0.10546944 -0.05104018 -0.12296729
000210 3d e5 b8 bd e2 ac cd 3d 13 ca 88 bd 02 cc a6 be
       -0.09028099 0.100427404 -0.066791676 -0.3257752
000220 97 8e 1e 3e 15 f9 f4 bd 45 64 fb 3d 78 78 6f 3e
       0.15484081 -0.11961571 0.12274984 0.23385799
000230 38 db af be 6a 8e 7a be ee a5 fe bd 84 eb 89 3d
       -0.34346938 -0.24468389 -0.12433992 0.06734374
000240 b1 f3 68 3d 7d 93 53 3d 86 57 2b 3c 69 31 33 be
       0.056873027 0.051654328 0.010457879 -0.17499317
000250 1e c1 49 3e c0 fa 99 bd 47 47 9f bd 7a bd 7f be
       0.19702575 -0.0751853 -0.07777267 -0.24974623
000260 37 e7 bd bd 5a 0b 9f 3e 2d 17 a1 be 31 46 b1 3d
       -0.09272616 0.31063348 -0.31462994 0.08655966
000270 88 b2 fd 3d e9 82 a1 be 18 ce a0 bc fa 56 c3 be
       0.12387568 -0.3154519 -0.019629523 -0.38152295
000280 84 6c 03 3e 21 08 3f 3e 51 9a 95 be 47 14 a8 bc
       0.12834364 0.18655445 -0.29219297 -0.020517481
000290 3c fd c2 ba 7f a2 fb bd c0 16 1e be f7 67 94 3d
       -0.0014876495 -0.12286853 -0.15438366 0.07246392
0002a0 01 e5 33 3e bc 22 54 3e 1d 4c 62 3e 6f 9f da 3d
       0.17567827 0.20716375 0.22099347 0.10674941
0002b0 61 6f 58 be 77 f1 27 bd 24 13 48 be 3b 60 80 3e
       -0.21136238 -0.041001763 -0.19538552 0.25073418
0002c0 c2 d4 62 bd 2c bc 8c bd 5d 5a 3c bd cd e2 59 3e
       -0.055378683 -0.068718284 -0.045984615 0.21277924
0002d0 de b6 8a be 53 46 a7 bd d1 5e c4 3c 0f 6a 2c bf
       -0.27092642 -0.0816771 0.023970993 -0.6734933
0002e0 47 41 1f 3e 15 75 65 be f3 ec 90 3e 1b 84 ac 3a
       0.15552245 -0.22407945 0.28305778 0.0013161929
0002f0 9b a3 05 3d 8d 38 f5 bd 2a 8a c9 3e 7b b5 df bd
       0.03262673 -0.11973677 0.39363223 -0.109232865
000300 67 eb 28 be 2f 6a 88 bd 60 50 4c be df 5d df bc
       -0.16496049 -0.06660878 -0.19952536 -0.02726644
000310 e5 d3 22 be f1 99 28 3d b7 22 70 3c ac 23 05 be
       -0.15901144 0.041162435 0.014656714 -0.13001889
000320 2e 09 c6 bd 44 e9 7e 3d 5b 40 89 bd 86 c9 3a be
       -0.0966972 0.06223418 -0.06701728 -0.18240938
000330 8f df 76 bd c8 f1 1b be 41 20 60 3e 99 03 65 3d
       -0.060271796 -0.15228951 0.21887304 0.055911634
000340 5f 34 2d 3e 24 3a d8 bb d0 95 09 be 70 cf 57 bd
       0.16914509 -0.006598728 -0.13436055 -0.052688062
000350 84 b6 34 3d da 9e 53 3e 3e 7d 1f bd ba 1f 5a bd
       0.044119373 0.20666066 -0.0389378 -0.053252913
000360 81 3c c5 be f2 af ac 3d a4 91 66 bc 3e 30 96 3c
       -0.38522723 0.084319964 -0.014072809 0.01833355
000370 b6 34 0c 3f 87 3f c0 3e 39 49 8b 3e 46 7f 61 3b
       0.5476793 0.37548468 0.27204302 0.0034408136
000380 bf 66 88 3d de 6d 07 bf 5c 36 6a 3b 6a 5a ec 3c
       0.06660222 -0.5290202 0.0035737967 0.028851707
000390 64 6b da bd f6 fb 2f bc ab f5 5d 3c 77 13 94 3e
       -0.106650144 -0.0107412245 0.013547341 0.289211
0003a0 7b e1 88 be f5 0d 04 be ef 69 51 3c 2b b3 eb bc
       -0.26734528 -0.12895949 0.012781604 -0.028771957
0003b0 c1 dd d7 bc ae 90 b5 bd e5 f8 a0 bd 32 a3 ea 3b
       -0.026350858 -0.08865486 -0.07859973 0.0071605677
0003c0 cc 05 52 3e e9 07 5c 3d 69 54 38 3d 43 91 27 be
       0.20510024 0.05371848 0.045002375 -0.16364007
0003d0 72 e6 b1 bd 16 24 66 bd 01 99 a6 bb df 99 e1 3d
       -0.08686532 -0.056186758 -0.0050841575 0.11015677
0003e0 eb 1a f9 ba 41 1f af 3d d4 bf 05 3f 6e 14 b2 bc
       -0.0019005215 0.08550883 0.5224583 -0.021738257
0003f0 b0 6b 03 be 02 87 4f 3d d5 4f c4 bc 58 8b 51 3e
       -0.12834048 0.050665863 -0.023963848 0.20463312

linear_relu_stack.9.bias f4 [64]
000000 62 5f 01 3f bb a0 16 3f 80 ef a8 3f bc 63 00 bd
       0.5053617 0.58839005 1.319809 -0.031345114
000010 c4 31 f7 3f 06 08 b5 3f 97 62 19 3f fa c1 6b 3e
       1.9312062 1.4143074 0.5991606 0.23023215
000020 85 4f 08 3f e9 32 d4 3e d5 16 ba 3f 3b d6 73 3f
       0.5324634 0.4144509 1.4538218 0.95248765
000030 e2 b9 eb 3d 5a 08 18 3f 73 0b b3 3f 38 41 2a 3f
       0.11510064 0.59387743 1.3987869 0.66505766
000040 65 c4 f1 3b b3 ad 00 3f d2 d5 84 bf d6 b5 dc 3e
       0.0073781484 0.50265044 -1.0377753 0.4310748
000050 e2 f5 b3 bd cf 15 2c 3f 50 5d 58 be ab 4d 66 3f
       -0.08787133 0.6722078 -0.21129346 0.8996226
000060 51 6b 01 3f 1b 7a 7a bd f6 a2 8f 3f 7f b7 fb 3d
       0.50554377 -0.061151605 1.1221607 0.122908585
000070 b7 b1 04 3f 74 22 12 3d 29 72 1c 3e ce 3d 58 bd
       0.5183367 0.03567739 0.15277924 -0.052793317
000080 b8 5d f3 3e 90 06 83 3e 74 19 bf 3e 7b 28 12 3f
       0.4753244 0.25590944 0.37324107 0.5709302
000090 99 b0 7f 3d fe 6e 77 3e a7 57 bd bd 84 22 f5 3e
       0.062424276 0.24163434 -0.09245234 0.47877896
0000a0 63 a9 e9 3e 4f 06 6c 3f e3 e0 d4 3e c4 28 05 3f
       0.45637044 0.92197126 0.41577825 0.5201533
0000b0 a1 86 63 bf bc eb 33 3e 61 98 10 3f 81 cc 93 be
       -0.888773 0.17570394 0.5648251 -0.28866962
0000c0 2e 79 5b 3d 23 a1 f4 3e 02 2a ea 3e 87 53 0c 3f
       0.053582363 0.47779188 0.45735174 0.5481495
0000d0 eb 0c a4 be a7 90 07 3f 8a 05 f7 3e 93 65 98 3e
       -0.32041106 0.52955097 0.48246413 0.29764995
0000e0 5d bf 5c 3f 47 84 9d 3f 2d 40 5b 3d 9f d2 b7 3f
       0.862295 1.2305993 0.053528 1.4361151
0000f0 c7 bb bd 3e 47 49 a5 be 57 a4 e8 be c4 bf d5 3c
       0.37057325 -0.3228247 -0.4543788 0.026092418

linear_relu_stack.12.weight f4 [20, 64]
000000 28 13 06 bf 9e ce c3 3d a8 0b c1 bf d9 4e a7 bd
       -0.5237298 0.095608935 -1.5081682 -0.08169336
000010 8e 80 be bd 38 75 77 c0 79 e3 3c bf d5 35 97 be
       -0.093018636 -3.8665295 -0.73784596 -0.29533258
000020 30 c3 3c 3f 72 8c 88 bd 20 73 1e be 0a 04 23 be
       0.7373533 -0.06667413 -0.15473604 -0.1591951
000030 7e e7 1c bf 3d 13 e7 be d2 f8 91 3e ae f9 88 3e
       -0.6129073 -0.45131865 0.28510147 0.2675299
000040 f5 b5 e4 bc d2 bb 39 bf 45 89 20 bf d8 d9 53 bf
       -0.027918795 -0.72552216 -0.62709457 -0.8275428
000050 c0 36 3f bf d4 7e 56 3f 49 2d 78 3d 1c b9 2c 3f
       -0.74692917 0.83787274 0.060590062 0.67469954
000060 bd e1 d4 3d a1 2e 11 be 2a f6 88 3e c2 31 94 3e
       0.10394619 -0.14177944 0.26750308 0.28944212
000070 ba ff 7d be d0 f5 ab bb dd 23 0a 3f 0e d3 5b 3f
       -0.24804583 -0.005247809 0.53960973 0.8586892
000080 dc 1a 13 3d 76 2f c3 be 21 54 d2 bf 5a 6a 0c 3c
       0.035914287 -0.38122147 -1.6431924 0.008570278
000090 3f 01 99 be b2 c3 a3 3e bd 5c 48 be fe 1f 0b bf
       -0.29883763 0.3198524 -0.19566627 -0.5434569
0000a0 30 46 75 3e b6 d1 dc bf 32 5c d4 3e 28 05 95 3e
       0.23952556 -1.7251499 0.4147659 0.29105496
0000b0 0f 88 16 bf 93 1b 58 bf 33 54 14 3f c7 b8 c3 3e
       -0.5880136 -0.84417075 0.5794098 0.3822691
0000c0 6f 59 9c bf df 13 be be 35 ab b2 3e bb d4 76 be
       -1.2214793 -0.37124535 0.34896246 -0.24104588
0000d0 3e 26 35 bf f4 d6 0e 3e 8e 02 1f be 89 0e c0 be
       -0.7076148 0.13949186 -0.15528318 -0.3751109
0000e0 55 ad db be 23 2d b0 be 4f 3f 96 bf 58 7c 40 c0
       -0.4290568 -0.34409437 -1.173807 -3.0075893
0000f0 93 48 09 3e ee ce bc 3d 88 49 93 3d 16 75 08 3f
       0.13406591 0.09219156 0.07191759 0.5330366
000100 71 80 14 3e 26 e9 b1 bd b4 9d 1e bd aa 1a 93 be
       0.14502122 -0.08687048 -0.038724616 -0.2873128
000110 9b d7 c2 bc fd 10 c3 bc 93 2c 5c be 18 36 cb bc
       -0.02378445 -0.023811812 -0.21501379 -0.024806067
000120 ed 88 d9 3c d3 21 c7 bd cb 39 2d bd 32 bd b8 3a
       0.02655455 -0.09723248 -0.042291444 0.001409447
000130 81 6d 83 3a 05 e2 e0 bc d7 7d 19 bd 33 da 7b bd
       0.0010027142 -0.027451525 -0.037473526 -0.061487388
000140 e0 1a db bd d4 12 1e bd 1a 8c 17 3d 1b bc c3 3d
       -0.106984854 -0.038592175 0.036998846 0.09557363
000150 ae 1a 4e 3d 62 63 7f 3d 67 37 61 3d 9c 4c 51 3e
       0.050318412 0.06235064 0.054984476 0.2043938
000160 bf 3d 91 3d 00 08 0c 3d ea 59 dc 3d b1 d4 ad 3d
       0.07091855 0.034187317 0.10759337 0.08487833
000170 04 4e 1a 3d f8 89 4d 3d c8 8a 8c 3d 4a 37 f5 3d
       0.037672058 0.050180405 0.06862408 0.11973436
000180 f3 a7 2a be 62 ec 37 bd 11 14 d0 bd 73 ff 3c bd
       -0.1666563 -0.044903167 -0.10160077 -0.046142053
000190 e1 76 37 3e aa 0d 56 bd 89 45 99 3c 5f a7 d6 bc
       0.17916442 -0.052259125 0.018709915 -0.026202856
0001a0 b4 50 42 3e 75 d2 56 bd 69 5b d6 3b ad df b1 3d
       0.18976098 -0.0524468 0.0065416587 0.08685241
0001b0 01 a9 6e 3e 45 57 c5 bc 92 d0 16 bd e4 ac 0f 3e
       0.23306657 -0.024089465 -0.036820002 0.14030796
0001c0 e8 92 a4 bc e9 a7 81 3d 75 f3 90 3d 91 6d ad bc
       -0.020089582 0.063308544 0.07077686 -0.02117041
0001d0 b6 0a 47 bd 34 f2 35 bd 1b 22 be 3d 82 b1 b4 bc
       -0.0485942 -0.044420436 0.09283849 -0.022057299
0001e0 f5 c2 cf bd 26 d7 d8 3c 7c d2 04 3e f7 a7 0e 3e
       -0.10144607 0.026469778 0.12970918 0.13931261
0001f0 1b 61 5f bc 95 1a 12 bd f1 98 5c bd d7 ec 10 3d
       -0.013633992 -0.03566988 -0.053856794 0.035382118
000200 bb ce dc bc d7 9b 0a bd b6 ce e6 3d 4d ed 59 bd
       -0.026954046 -0.033840027 0.11269896 -0.053204823
000210 4f 6e 85 3e 72 2d 1d 3d 44 52 76 3c 09 7a 76 3e
       0.2606072 0.03837342 0.015034262 0.2406999
000220 02 b6 80 bd 4d bb f0 3d 98 06 70 3d ad 74 ef bd
       -0.06284715 0.11754475 0.05860004 -0.11692176
000230 15 dc b5 3c 04 bd bb bc a5 69 a5 bc 8c 9b b4 3d
       0.02219967 -0.022917278 -0.020191977 0.08818731
000240 6b f4 d6 bc 6e c0 a4 3d d7 cf a4 3d a9 ed de 3d
       -0.026239594 0.080445156 0.08047455 0.10885174
000250 6a a6 63 be 06 e3 9a bc 06 6d d7 bb cb 09 d4 bb
       -0.2223145 -0.018907081 -0.006574276 -0.006470894
000260 d8 79 f0 3c ac 88 c9 3d db d9 45 3e aa 9e e7 bd
       0.029354975 0.09840521 0.19321387 -0.1130956
000270 d7 8d f3 bd c1 67 5f 3e 80 9d 4e 3e 30 b3 d7 3d
       -0.11892288 0.21816923 0.20177269 0.10532224
000280 93 df 9f bc d0 cf b7 3c 64 a3 92 3c 6e 14 f6 bd
       -0.019515788 0.02243796 0.017900176 -0.120156154
000290 1c 07 d3 3c 97 1d 0d be c1 59 d0 3d 5f 22 34 3d
       0.025760226 -0.13780819 0.10173369 0.04397809
0002a0 11 81 0f 3e 5f 29 ae 3c 8b c8 11 be 1b 37 c6 bd
       0.14014079 0.021259962 -0.14236657 -0.09678479
0002b0 4c c1 10 b9 74 cb 2d bd ef 88 63 bd 85 81 9f 3c
       -0.00013804919 -0.042430356 -0.055550512 0.01947094
0002c0 2e 91 c4 3d 93 b2 75 bc d3 24 62 bc 53 0a 45 bc
       0.09598003 -0.014996189 -0.013802725 -0.012026387
0002d0 8f ed 84 bc c5 85 cb bc 41 b0 1d 3d 71 9e 10 bd
       -0.016226558 -0.02484406 0.038498167 -0.03530735
0002e0 69 d7 09 be e8 df 4a 3c f2 92 93 bc b7 f3 40 3d
       -0.13461079 0.012382485 -0.018014405 0.047107425
0002f0 af eb 32 be 5a c9 1b 3e 82 8f d0 3d 23 eb ba bd
       -0.17472719 0.15213528 0.10183622 -0.0912688
000300 2f 39 19 3e 10 c4 a9 3e 42 26 33 3e 04 4d ae 3e
       0.1496322 0.33157396 0.17495063 0.34043133
000310 c4 68 f9 bc b8 d6 8b bf f7 81 37 3e f4 05 9c bd
       -0.030445464 -1.0924902 0.17920671 -0.07618323
000320 6a d4 22 be c1 23 e4 bd 61 ff 65 be 9b d9 9f bd
       -0.15901342 -0.11139632 -0.224607 -0.07805177
000330 9d 02 a6 be d5 82 be 3e ed 81 50 be 4f 8f 01 bf
       -0.3242387 0.37209192 -0.20362063 -0.50609297
000340 b8 0c 79 bd 5f 95 00 3e ae 0e 31 be 01 05 c1 bc
       -0.060803145 0.1255698 -0.17290756 -0.023561956
000350 6f a2 1b 3e b7 98 34 3e 38 19 4a 3d 4a e6 2b bf
       0.15198682 0.17636381 0.049340457 -0.6714827
000360 8d af 40 3e e0 dc 29 3e 38 81 ee 3d e2 66 32 3d
       0.18816967 0.16588163 0.1164574 0.043555148
000370 42 36 76 bf 69 3d e8 3c 73 3c 8b bd 95 db 45 3d
       -0.9617654 0.028349595 -0.06798639 0.048305113
000380 97 95 a0 3d ae a0 3a bd 09 92 49 be 2f 22 74 3e
       0.07841032 -0.045563392 -0.19684614 0.23841165
000390 cd e1 3e 3e e7 01 85 3e 87 65 95 3d d6 c3 f2 be
       0.18640824 0.25978014 0.072947554 -0.47415036
0003a0 52 03 23 bc 5e 4b 40 bc 24 b4 a1 3e 47 e9 fc bd
       -0.009949522 -0.011736719 0.3158275 -0.123491816
0003b0 74 7e 3e bd ee b8 3a bd 0f 87 20 be b7 f7 54 bc
       -0.046507314 -0.04558652 -0.15676521 -0.012998513
0003c0 c5 bb 1c bc 98 19 c6 3d 31 e7 df bd d5 08 af 3d
       -0.009566252 0.0967285 -0.10932768 0.085466065
0003d0 9f ab 15 bb 62 2a 0b be eb 2a df bd c1 2e e0 3c
       -0.002283789 -0.13590387 -0.10896858 0.027366044
0003e0 40 fa dc bd fb 85 84 3e 80 c8 b9 3e d3 a2 af bf
       -0.10789919 0.2588347 0.36285782 -1.3721565
0003f0 c8 95 8b bd 25 65 bd 3d 4c 4a e8 bb 32 4a 03 be
       -0.06815678 0.092478074 -0.007088935 -0.12821272

linear_relu_stack.12.bias f4 [20]
000000 8a fb 02 40 be ba 8a be 98 0d 24 bf 29 5e d4 3e
       2.0466027 -0.27095598 -0.6408324 0.41478088
000010 93 81 9e be bb 34 47 be a4 41 7b be ef cb 0a 3d
       -0.30958232 -0.19453709 -0.24536759 0.033885892
000020 5d 7a a6 be 6e 45 b3 3e 00 dc 22 3c c7 8b a8 3e
       -0.3251523 0.35013908 0.009940147 0.32919142
000030 f8 f4 50 3e 30 ba bc 3e db b2 69 be d3 43 bc 3d
       0.20405948 0.368608 -0.22822134 0.09192624
000040 7d 98 ed 3e 73 28 1b be b7 2a de 3e 0f 67 36 3f
       0.46405402 -0.15152149 0.43391964 0.71251005
