two_phase_training/TPT-1/OS_parameters.pth (torch, 104647 bytes, 10 tensors)

linear_relu_stack.0.weight f4 [64, 180]
-0.15864123 0.37107766 0.18810508 -0.17909215 -0.17310356 0.105242595 -0.26071423 -0.014270638
-0.03850153 -0.026377866 -0.03498834 -0.04073034 -0.03726461 -0.008890625 -0.06695766 -0.058039717
0.026594348 -0.029750701 -0.053653687 0.10689935 0.011925453 -0.052594546 0.14329419 0.02459157
-0.053682003 0.15833369 0.059898596 -0.037990354 0.1891026 0.051561896 -0.06204644 0.19723667
0.035597786 -0.03894336 0.18899289 0.054191913 -0.038026515 0.15138273 0.023134906 -0.039027415
0.15894963 0.029831104 -0.02131371 0.12508816 0.022243317 -0.017195921 0.14415944 0.042492002
0.8181945 -0.52455014 -0.1954949 0.64495134 0.2045634 -0.21916555 -1.0587316 -0.009278793
0.07663969 -0.42872694 0.59739727 -0.5472697 -0.18402855 -0.12881626 -0.22202796 -0.2791526
-0.14023927 0.25449637 -0.5261361 0.11362395 -0.45122513 0.2516142 -0.53616047 -0.3173476
-0.33470288 0.43387273 -0.32352072 0.23350334 -0.37124228 0.0029433914 -0.44256327 0.23161863
-0.15741886 -0.0038166638 -0.14758496 0.17661299 -0.28854594 0.11823862 -0.06207548 0.05223892
-0.09073463 0.15157315 0.26970795 0.23625942 -0.167745 0.062357817 0.15742175 -0.014110561
0.054988544 0.16134788 0.01131205 0.06855004 0.15634575 0.12379046 0.09038194 0.1814048
0.13511185 0.08943194 0.09588551 0.035034735 0.093098536 -0.17309766 -0.09670013 0.24877933
0.46184057 0.8460678 -0.6260389 -0.42422727 -0.32188922 0.27614376 0.8245802 -0.6402682
-0.4227439 0.43245256 0.9433144 -0.9765643 0.6320039 0.20848489 0.43483734 0.010048117
0.4325222 0.12393003 0.48806584 0.0779256 0.32566136 0.03214988 0.439269 0.050788667
0.19158413 0.1564594 0.31496352 0.15464239 0.024928108 -0.02440502 0.16771106 0.087721325
0.14765316 -0.10295509 -0.069935724 0.10384677 0.06795311 0.0008702099 -0.08641398 0.118848406
0.0244574 -0.0042995014 -0.049312882 -0.0033733188 -0.20336515 -0.013416441 0.058602285 -0.18634772
-0.20988841 -0.1670353 -0.077319354 -0.20358235 -0.32221055 0.05373734 -0.25724435 -0.08781335
-0.31873968 0.15077028 -0.41214558 0.027891034 -0.26736444 0.12616651 -0.11197964 -0.23697414
-0.14424375 -0.121263675 -0.07799894 -0.3009471 0.5105384 -0.3454451 -0.6107243 -1.4957912
-1.4035378 1.2746818 -0.0017989133 -0.019188613 -0.007919342 -0.010288238 0.0037371004 -0.0015686725
-0.008693108 -0.0046312883 -0.001231039 -0.0047148494 -0.0059820362 0.00018723145 -0.0042258045 -0.0023485855
-0.0012172592 -0.0032913059 0.004190466 0.0018629316 0.00023678553 -6.9022004e-05 0.002036162 0.002224541
0.00037207268 0.0020739667 -6.661635e-05 0.0030944136 -6.9475005e-05 0.0022121293 0.0020618893 0.00020469498
0.0011453684 0.0025228935 -0.0015333535 0.00087592134 0.0028879575 -0.00031317663 -0.0010226404 0.005308727
0.0014588657 0.0014717167 0.00029797383 0.0032012477 -0.20454098 0.7666215 -0.7037453 -0.3924308
-1.0624634 -7.6815 7.543785 -1.3926902 0.0028894881 -0.019909795 -0.0570683 -0.0032100456
0.01987015 -0.0033808209 -0.017544191 -0.0028195893 0.018374896 0.024583949 -0.0059609693 -0.015908666
0.008179491 0.0075402325 -0.028282685 -0.025456985 0.019770676 -0.00101316 0.019952554 -0.008783877
00000000: d972 22be e4fd bd3e 9e9e 403e ef63 37be
00000010: 0f42 31be 6e89 d73d 567c 85be 65cf 69bc
00000020: c8b3 1dbd 6516 d8bc ef4f 0fbd dbd4 26bd
00000030: c7a2 18bd fca9 11bc 1921 89bd 0ebb 6dbd
00000040: 64dc d93c beb7 f3bc f8c3 5bbd 0cee da3d
00000050: fa62 433c 616d 57bd b6bb 123e 4374 c93c
00000060: a9e1 5bbd 3a22 223e 3b58 753d c69b 1bbd
00000070: 1da4 413e 9132 533d 6824 7ebd 69f8 493e
00000080: fcce 113d 1383 1fbd 5a87 413e 57f8 5d3d
00000090: b1c1 1bbd 1304 1b3e 6a85 bd3c 36db 1fbd
000000a0: b1c3 223e 5c60 f43c 179a aebc 1c17 003e
000000b0: 9e37 b63c 76de 8cbc 889e 133e 180c 2e3d
000000c0: 3275 513f eb48 06bf d12f 48be 881b 253f
000000d0: 1179 513e ef6c 60be 8484 87bf 1406 18bc
000000e0: 45f5 9c3d 1982 dbbe 07ef 183f de19 0cbf
000000f0: fb71 3cbe 69e8 03be 4c5b 63be 17ed 8ebe
00000100: e29a 0fbe 594d 823e dbb0 06bf acb3 e83d
00000110: fb06 e7be 94d3 803e d041 09bf 627b a2be
00000120: 2d5e abbe 9124 de3e 82a4 a5be 801b 6f3e
00000130: 7813 bebe eae5 403b a797 e2be 6f2d 6d3e
00000140: 6932 21be fe20 7abb 8320 17be 09da 343e
00000150: 4bbc 93be 1727 f23d dc42 7ebd 7af8 553d
00000160: 14d3 b9bd fe35 1b3e 2917 8a3e fded 713e
00000170: 58c5 2bbe e96a 7f3d 2b33 213e fc2f 67bc
00000180: ab3b 613d 6138 253e 2d56 393c f763 8c3d
00000190: 1a19 203e da85 fd3d 2b1a b93d 2ec2 393e
000001a0: c35a 0a3e 1828 b73d 9f5f c43d 9580 0f3d
000001b0: 72aa be3d 8340 31be b80a c6bd 02c0 7e3e
000001c0: 5e76 ec3e e697 583f 1644 20bf 5134 d9be
000001d0: aace a4be b762 8d3e b017 533f 9ee8 23bf
000001e0: e371 d8be 6c6a dd3e 0d7d 713f 1e00 7abf
000001f0: 02cb 213f 107d 553e 00a3 de3e dba0 243c
00000200: 8d73 dd3e 07cf fd3d c4e3 f93e 7597 9f3d
00000210: 16bd a63e 98af 033d dee7 e03e c707 503d
00000220: a12e 443e e536 203e e642 a13e 935a 1e3e
00000230: 0836 cc3c 09ed c7bc 73bc 2b3e 3da7 b33d
00000240: 6432 173e 1eda d2bd 763a 8fbd 9ead d43d
00000250: 002b 8b3d cc1e 643a d0f9 b0bd cb66 f33d
00000260: e35a c83c d5e2 8cbb 4efc 49bd e612 5dbb
00000270: f43e 50be a2d0 5bbc f308 703d f0d1 3ebe
00000280: fdec 56be 4d0b 2bbe 9c59 9ebd e477 50be
00000290: c8f8 a4be af1b 5c3d 88b5 83be 7cd7 b3bd
000002a0: d931 a3be 8663 1a3e bf04 d3be bd7b e43c
000002b0: fee3 88be cb31 013e 9555 e5bd 59a9 72be
000002c0: a2b4 13be 1759 f8bd e9bd 9fbd bd15 9abe
000002d0: a5b2 023f 2ede b0be 6d58 1cbf 1676 bfbf
000002e0: 20a7 b3bf c628 a33f 84c9 ebba 7031 9dbc
000002f0: 21c0 01bc ff8f 28bc 24ea 743b ea9b cdba
00000300: 8a6d 0ebc 10c2 97bb d05a a1ba 067f 9abb
00000310: f504 c4bb 8f53 4439 9e78 8abb baea 19bb
00000320: 718c 9fba f3b2 57bb 2d50 893b 9d2d f43a
00000330: a249 7839 e8bf 90b8 2171 053b 9bc9 113b
00000340: c012 c339 63eb 073b 61b4 8bb8 a5cb 4a3b
00000350: 1cb3 91b8 5ff9 103b c320 073b 64a3 5639
00000360: 3020 963a 2157 253b cefa c8ba 169e 653a
00000370: e343 3d3b db31 a4b9 1e0a 86ba d4f4 ad3b
00000380: 6937 bf3a 9ee6 c03a 5f39 9c39 06cc 513b
00000390: 3173 51be 4e41 443f a728 34bf b1ec c8be
000003a0: cdfe 87bf d9ce f5c0 b066 f140 ac43 b2bf
000003b0: 915d 3d3b de19 a3bc 73c0 69bd a15f 52bb
000003c0: bac6 a23c c390 5dbb d6b8 8fbc dcc8 38bb
000003d0: f386 963c 4764 c93c 3c54 c3bb e452 82bc
000003e0: 4603 063c 0e14 f73b 17b1 e7bc 2b8b d0bc
000003f0: 1df6 a13c 02cc 84ba 8a73 a33c 40ea 0fbc

linear_relu_stack.0.bias f4 [64]
0.15355651 -2.185 0.448275 2.1856225 -0.8292678 -0.23584938 0.45046026 1.5775503
-1.7209995 -2.6405988 -0.6821713 0.47028002 -1.0970707 1.7525411 -3.8444848 -0.2492681
2.44553 -0.96595824 -1.675577 -1.2485083 -2.9260674 -0.80245256 0.31748745 1.6174836
-2.6976626 -0.88737655 0.26670817 0.9084223 -1.3508724 -0.7710701 0.5451829 1.31292
0.14391854 -0.23629123 -1.3692812 1.4529684 -2.7544959 -0.47026873 -1.1915255 0.63707125
1.458926 -0.8250412 -0.3480928 1.2085046 0.079296604 0.5093835 -1.2896403 -0.5357898
0.64609903 -0.82626444 3.430669 0.03433629 0.51572526 -4.1471524 -2.0752313 -1.3502759
4.377221 4.2646956 0.69288987 0.8808369 -0.8676141 1.804237 -0.4302601 0.6226792
00000000: eb3d 1d3e 0ad7 0bc0 4d84 e53e 3de1 0b40
00000010: e54a 54bf 8082 71be baa2 e63e 2bed c93f
00000020: b649 dcbf 92ff 28c0 c7a2 2ebf 8bc8 f03e
00000030: d06c 8cbf 4453 e03f 0a0c 76c0 2340 7fbe
00000040: 9083 1c40 0a49 77bf 4f79 d6bf 1fcf 9fbf
00000050: b044 3bc0 886d 4dbf b78d a23e b409 cf3f
00000060: 81a6 2cc0 1c2b 63bf f98d 883e 5d8e 683f
00000070: 63e9 acbf da64 45bf 1b91 0b3f c30d a83f
00000080: 625f 133e 54f6 71be 9b44 afbf defa b93f
00000090: a949 30c0 10c7 f0be e883 98bf 1a17 233f
000000a0: 16be ba3f e635 53bf 3839 b2be 47b0 9a3f
000000b0: 4266 a23d f566 023f ef12 a5bf 8529 09bf
000000c0: bf66 253f 1186 53bf 1590 5b40 36a4 0c3d
000000d0: 9206 043f 79b5 84c0 97d0 04c0 d7d5 acbf
000000e0: 3212 8c40 6378 8840 3b61 313f 877e 613f
000000f0: f51b 5ebf 3df1 e63f 0d4b dcbe e767 1f3f

linear_relu_stack.3.weight f4 [64, 64]
0.04183325 -0.0066253184 -0.26077354 -0.33062148 -0.017036036 0.043994136 0.031823307 -1.8271931
-0.30983987 -0.13237958 -0.22198205 0.103723295 0.08581469 0.26542437 0.18253465 -0.13940018
-0.5263794 -0.72549945 -0.00033407717 0.24298471 0.4670058 -0.058747347 -0.15644616 -0.16150062
-0.106136136 0.067893945 -0.12880643 -0.0707424 0.03750257 -0.059718717 0.19372103 -0.08139901
-0.24107535 0.024410622 -0.19631056 -0.14716537 -0.12780695 -0.1126485 0.0054613664 0.046802953
0.6497997 0.016972287 0.2279806 -0.13777374 -0.11041424 -0.7516934 -0.065760314 0.14398766
0.15610355 0.051032566 -0.91832554 0.16837801 0.016727803 -0.35096368 -0.024014618 0.1005348
0.04539 0.24893065 0.17771874 0.112786375 0.48325765 0.41288617 -0.034999773 -0.006078885
0.123596385 -0.13900574 -0.0026816896 -0.13338478 -0.03239751 -0.02880165 0.02376029 0.26418284
0.3399316 -0.14636515 -0.030109124 -0.1852156 0.093176335 0.02295081 -0.09517396 -0.008472777
-0.43359262 0.90561014 -0.16650333 -1.0158715 0.45122355 -0.015802963 -0.15656736 0.026439207
0.0880464 -0.08946458 -0.18932773 0.21565303 0.3547227 0.053607196 0.5159701 -0.038813405
0.14039457 0.35902822 0.02961549 0.05747978 -0.028808527 -0.06449429 0.00658187 0.015972765
0.0071876575 -0.080215394 0.055463452 0.07866621 0.12797475 -0.4391685 0.03852825 0.19213504
0.030268086 0.13582097 -2.4210937 0.01211034 -0.34164912 -0.0992045 0.20153068 0.35844308
-1.2713057 -0.7989557 -0.14079429 0.05910473 0.22449377 -0.07390947 -0.026350593 -0.025994767
-0.06826507 0.034328826 -0.0148388315 -1.491571 -0.09894465 -0.058665644 -0.056809247 0.22269134
-0.15405549 0.05109736 0.15720163 -0.54622394 -0.01136535 -0.16889243 0.25804627 -0.06916733
0.6061473 0.10150415 0.14846392 0.0050331815 0.6281737 0.013580376 -0.010823958 -1.1272829
-0.1082362 0.08146237 0.13386665 0.6539765 0.4194617 0.007928585 -0.006596355 0.8907174
0.1538855 -0.17949015 -0.051498514 -0.3525033 0.022697022 -0.0032750065 0.010460795 -0.0689937
0.16340764 -0.066051975 0.0042781285 -0.09080619 -0.07115341 -0.5669263 -0.0918035 0.045263942
0.008574393 0.08969439 -1.132941 -0.08443188 -0.063612945 -0.039408263 0.1931104 0.2744146
0.33081087 0.45757213 -0.40889627 0.017696451 0.267025 -0.6220981 -0.0019593644 0.22744787
-0.008801714 0.6034458 -0.023291824 -0.9022586 -0.03130869 -0.027259326 0.010195836 -1.5067098
0.03337962 0.42509687 0.07594429 -0.19345573 0.0029972857 -3.0255485 -0.025457349 -0.008663087
-1.2280643 0.47147027 0.11978649 -0.22968858 0.0446794 -0.014042581 -0.015163841 -0.113441594
-0.0042796186 0.01611132 0.08797435 0.16118428 2.7295876 0.010042733 -0.07589761 -1.3220495
0.018163245 0.18622078 0.020336347 -0.9684056 -0.0106754685 -0.013517217 -0.019281376 -0.0012932585
0.38090995 -0.03184547 0.0081852535 0.0030084236 0.026269648 -0.20232055 0.003251569 -0.40925974
-0.056872305 0.012643725 0.47900388 0.034593705 0.07408384 -0.042885933 0.045200974 2.7210772
-0.22475986 0.52464455 -0.2134429 -0.031486843 -0.3477638 -0.38333958 -0.012115166 -0.2048499
00000000: 5859 2b3d 3319 d9bb 1c84 85be 3847 a9be
00000010: 288f 8bbc 3233 343d 2859 023d 77e1 e9bf
00000020: 55a3 9ebe 838e 07be 434f 63be e16c d43d
00000030: 9dbf af3d b4e5 873e 5dea 3a3e ecbe 0ebe
00000040: cdc0 06bf 55ba 39bf 1427 afb9 fcd0 783e
00000050: 621b ef3e 0fa1 70bd 6c33 20be 6b60 25be
00000060: e75d d9bd fb0b 8b3d d5e5 03be 64e1 90bd
00000070: 4b9c 193d 9d9b 74bd ce5e 463e 86b4 a6bd
00000080: 75dc 76be c9f8 c73c a305 49be 85b2 16be
00000090: d3df 02be 42b4 e6bd 43f5 b23b 74b4 3f3d
000000a0: 4659 263f 7709 8b3c bf73 693e 8f14 0dbe
000000b0: dc20 e2bd fb6e 40bf 58ad 86bd 8071 133e
000000c0: 9cd9 1f3e 8607 513d 6217 6bbf 496b 2c3e
000000d0: bf08 893c 83b1 b3be 4eba c4bc 30e5 cd3d
000000e0: ddea 393d ade7 7e3e e7fb 353e 8bfc e63d
000000f0: 8c6d f73e d165 d33e ec5b 0fbd 6231 c7bb
00000100: 1a20 fd3d 8557 0ebe 49bf 2fbb 0596 08be
00000110: 40b3 04bd 70f1 ebbc f1a4 c23c f942 873e
00000120: 840b ae3e bfe0 15be 69a7 f6bc 29a9 3dbe
00000130: 3cd3 be3d 5603 bc3c 91ea c2bd 67d1 0abc
00000140: daff ddbe 11d6 673f d97f 2abe 1408 82bf
00000150: c606 e73e 3775 81bc 3253 20be 0997 d83c
00000160: ac51 b43d 3539 b7bd 21df 41be 26d4 5c3e
00000170: 379e b53e 3893 5b3d 9e16 043f cefa 1ebd
00000180: 98c3 0f3e 8cd2 b73e 2f9c f23c eb6f 6b3d
00000190: dcff ebbc 9515 84bd baac d73b 51d9 823c
000001a0: 7186 eb3b f847 a4bd a52d 633d c01b a13d
000001b0: d00b 033e b2da e0be cccf 1d3d 0cbf 443e
000001c0: c7f4 f73c a714 0b3e 33f3 1ac0 736a 463c
000001d0: a2ec aebe bb2b cbbd 0f5e 4e3e da85 b73e
000001e0: 25ba a2bf 5c88 4cbf 612c 10be cd17 723d
000001f0: b2e1 653e d95d 97bd 33dd d7bc faf2 d4bc
00000200: 8fce 8bbd 629c 0c3d 921e 73bc cceb bebf
00000210: 7ea3 cabd 634b 70bd d0b0 68bd 3309 643e
00000220: b9c0 1dbe 774b 513d 77f9 203e 55d5 0bbf
00000230: bc35 3abc 23f2 2cbe a41e 843e 9aa7 8dbd
00000240: 782c 1b3f 68e1 cf3d ed06 183e 63ed a43b
00000250: fecf 203f 3a80 5e3c f856 31bc ce4a 90bf
00000260: f1aa ddbd bed5 a63d 5714 093e 016b 273f
00000270: afc3 d63e e5e6 013c 3c26 d8bb 0e06 643f
00000280: 2994 1d3e 44cc 37be 1bf0 52bd 507b b4be
00000290: 1bef b93c 7ea1 56bb c163 2b3c 924c 8dbd
000002a0: 5554 273e 4246 87bd 8b2f 8c3b 99f8 b9bd
000002b0: e1b8 91bd 1522 11bf 7903 bcbd af66 393d
000002c0: 9c7b 0c3c b1b1 b73d 3604 91bf 9fea acbd
000002d0: 8147 82bd 8f6a 21bd bcbe 453e 1280 8c3e
000002e0: 0b60 a93e e546 ea3e da5a d1be 26f8 903c
000002f0: 80b7 883e d241 1fbf ae68 00bb 18e8 683e
00000300: 1035 10bc 6d7b 1a3f 7fce bebc 6bfa 66bf
00000310: 8a3d 00bd f34e dfbc 700c 273c dedb c0bf
00000320: 12b9 083d 4ca6 d93e ae88 9b3d 4219 46be
00000330: 1c6e 443b 96a2 41c0 ee8b d0bc 9fef 0dbc
00000340: 3631 9dbf 8d64 f13e 9f52 f53d 7c33 6bbe
00000350: bf01 373d db12 66bc c271 78bc 1154 e8bd
00000360: 0b3c 8cbb e3fb 833c e52b b43d 7e0d 253e
00000370: 90b1 2e40 468a 243c 3570 9bbd eb38 a9bf
00000380: 16cb 943c a9b0 3e3e 6998 a63c 6ee9 77bf
00000390: 29e8 2ebc 5177 5dbc faf3 9dbc 8e82 a9ba
000003a0: a106 c33e 6570 02bd 711b 063c f928 453b
000003b0: 7233 d73c 1e2d 4fbe 4718 553b 7e8a d1be
000003c0: eff2 68bd a027 4f3c ff3f f53e 21b2 0d3d
000003d0: 45b9 973d 29a9 2fbd a824 393d 2126 2e40
000003e0: 7327 66be 1b4f 063f c790 5abe 59f8 00bd
000003f0: 190e b2be 1645 c4be b07e 46bc 2cc4 51be

linear_relu_stack.3.bias f4 [64]
0.7666318 0.53396195 -0.85632145 -1.0787776 1.3576503 -1.124855 0.8613993 2.3113377
1.0748583 -0.0017129431 0.81322646 1.5030141 -1.1811279 -1.8751026 -0.15532298 -0.29804912
-0.22036175 1.7827057 1.0646942 1.2416887 -1.3133826 2.034446 -0.41368106 -0.14462604
2.96792 -0.79623514 -1.7579008 -1.0421213 -0.4088894 -0.11248503 1.8954121 1.5266901
0.94281363 -0.9169497 -1.6793028 -5.503899 -1.3021302 -1.1030344 0.56959 -1.3433776
0.61106205 -1.0367354 -2.8465855 -0.5397025 -1.4218138 1.0484809 0.42475945 -4.3152623
0.14170149 -2.078518 2.0948706 -4.522183 -1.6841561 -0.6447025 -2.1214395 0.68442607
-1.4338255 0.3946681 -1.1460419 0.586922 -1.2956327 -2.1887739 -1.1997393 0.11983473
00000000: fb41 443f bbb1 083f e237 5bbf 6215 8abf
00000010: 7cc7 ad3f 40fb 8fbf aa84 5c3f f5ec 1340
00000020: f594 893f d584 e0ba 9c2f 503f c462 c03f
00000030: 332f 97bf 5d03 f0bf fd0c 1fbe e599 98be
00000040: 83a6 61be b32f e43f e647 883f a8ef 9e3f
00000050: ec1c a8bf 5d34 0240 01ce d3be d918 14be
00000060: 67f2 3d40 11d6 4bbf e502 e1bf 3b64 85bf
00000070: f459 d1be 8d5e e6bd dd9c f23f 956a c33f
00000080: 3c5c 713f 37bd 6abf 65f3 d6bf f11f b0c0
00000090: 34ac a6bf 3b30 8dbf a6d0 113f ccf3 abbf
000000a0: 906e 1c3f bfb3 84bf 752e 36c0 f129 0abf
000000b0: fffd b5bf 9f34 863f 127a d93e a116 8ac0
000000c0: 321a 113e 7006 05c0 5c12 0640 b9b5 90c0
000000d0: 6d92 d7bf 390b 25bf aac5 07c0 8c36 2f3f
000000e0: 9887 b7bf f011 ca3e 80b1 92bf 8540 163f
000000f0: 4bd7 a5bf df14 0cc0 0f91 99bf e96b f53d

linear_relu_stack.6.weight f4 [64, 64]
0.1510288 0.19278878 -0.23464964 0.19407783 -0.10112099 -0.09043881 0.029762 -0.1378835
-0.013010459 -0.031691644 -0.09819166 0.3010909 0.12358566 0.060235057 0.34935206 -0.094039045
0.022362666 0.17031935 0.009350514 -0.13312367 0.05883874 -0.19472009 -0.05638409 0.41552496
-0.01350236 0.07646793 -0.0212269 -0.01317758 0.3113029 -0.25987062 0.09008854 -0.3808635
0.013697696 0.043857545 0.14815027 0.0039012544 -0.30772498 0.13116713 -0.13368517 0.24796863
-0.1311487 -0.27396435 0.29912287 -0.81013894 -0.25043684 -0.043578967 -0.23781958 -0.40573803
0.008780457 -0.17712824 0.05574409 -0.4589336 -0.1475207 -0.3671099 0.07844439 0.0009676661
-0.075803004 0.16551866 0.17773555 0.12590894 -0.24157286 -0.10397539 0.23251301 -0.12334559
-0.38706154 0.27271333 0.35910302 -0.44957927 -0.11328436 0.004774968 0.22980747 0.083699465
0.06889597 -0.22654687 -0.2652066 0.259834 0.1770046 -0.08022971 -0.22889782 -0.003162036
-0.35034654 -0.06396114 -0.046416137 0.23419459 -0.1567387 -0.10909221 0.054918427 0.602675
0.06898955 0.27526286 0.12592468 -0.21583399 0.05909789 -0.0031389687 -0.034373436 -0.28717607
0.044608608 0.317769 0.23179907 -0.21140216 0.12315466 -0.28522688 -0.13391902 -0.21772517
0.9307301 -0.0073016398 -1.191381 -1.5985812 -0.020143185 0.10977124 -0.5145365 -0.6930423
0.021213222 0.105903454 0.46695817 0.12303921 0.2657856 -0.2692362 -0.2521351 -0.024848737
-0.4056052 0.11389429 0.048274983 0.11411726 -0.036550876 0.15369616 -0.089635044 -0.061596088
0.33274734 0.58735 -0.028050914 0.070372134 -1.5944725 -1.1493535 -0.3169081 -0.009286615
0.018248009 -0.06046931 -0.07477163 -0.9807718 0.07405947 -0.3489925 -0.5042105 0.17204858
-0.5792444 -0.50371385 0.23597026 -0.050167784 0.085677035 0.07623884 -1.7674965 0.5015891
-0.36853018 -0.69522446 0.31974196 0.20522636 -0.060739398 -0.059312996 0.2595032 0.09944972
0.14127247 -0.076089546 0.42031273 -0.24362925 0.1447925 -0.47373888 0.59771067 -0.039315358
-0.3329769 -0.018952323 0.9422761 -0.30962804 0.34251493 0.16230285 -0.29400712 0.22826666
-0.58676946 -0.1449912 -0.6592408 0.59018266 -1.091249 -0.10546418 -0.47731707 0.029793266
0.13772121 0.23514707 -0.1970233 0.35684714 0.2604065 0.1460998 -0.19357805 0.028139362
0.028786121 0.06827352 -0.4446885 0.14407681 -0.10405106 0.19223003 -0.024886912 -0.30527505
-0.09378241 -0.19033866 0.019354835 -0.5115112 -0.039063502 -0.069421396 0.2320473 -0.17365842
-0.03682848 0.39234418 -0.07129455 0.19676147 -0.2597494 -0.39815593 -0.5148315 0.2551819
0.42344075 -0.32501835 -0.3118327 0.26019606 0.26750088 -0.2482885 -0.020862592 0.14167032
0.23070495 -0.22955693 0.0037934766 -0.20567484 -0.19536652 -0.040194154 0.04775 0.58516586
0.3220769 -0.059499104 0.37062016 0.1340477 -0.7677827 0.0691087 -0.43593958 -0.099469095
0.046301134 -0.12514985 0.24496531 -1.1323488 -0.28863806 0.002707375 0.39755073 -0.115820944
0.05243793 0.0715567 0.32522136 0.13980779 -0.317272 -0.05671932 0.21196306 -0.4670994
00000000: 4ba7 1a3e 6c6a 453e ff47 70be 57bc 463e
00000010: 8618 cfbd fc37 b9bd 70cf f33c 5531 0dbe
00000020: d229 55bc 19cf 01bd b618 c9bd 9628 9a3e
00000030: 7a1a fd3d 09b9 763d 46de b23e 8b97 c0bd
00000040: e931 b73c 3268 2e3e e632 193c 9251 08be
00000050: e400 713d b464 47be 01f3 66bd b0bf d43e
00000060: 0139 5dbc 389b 9c3d 09e4 adbc c7e6 57bc
00000070: 1863 9f3e c30d 85be 5780 b83d 8a00 c3be
00000080: 4d6c 603c f8a3 333d b4b4 173e 30ac 7f3b
00000090: 218e 9dbe ad50 063e c4e4 08be 7deb 7d3e
000000a0: d84b 06be 0e45 8cbe a226 993e 4465 4fbf
000000b0: 4239 80be dc7f 32bd fa86 73be e5bc cfbe
000000c0: e8db 0f3c 1b61 35be ea53 643d 58f9 eabe
000000d0: ab0f 17be d4f5 bbbe 74a7 a03d f9aa 7d3a
000000e0: 9b3e 9bbd b97d 293e 4f00 363e 46ee 003e
000000f0: e05e 77be 0df1 d4bd e417 6e3e 9d9c fcbd
00000100: ee2c c6be 15a1 8b3e 5adc b73e 412f e6be
00000110: a101 e8bd 5677 9c3b a652 6b3e a06a ab3d
00000120: 5519 8d3d e7fb 67be 29c9 87be f608 853e
00000130: b240 353e 794f a4bd 3164 6abe 293a 4fbb
00000140: 9f60 b3be 0ffe 82bd d91e 3ebd b5d0 6f3e
00000150: 1c80 20be bd6b dfbd 25f2 603d e948 1a3f
00000160: 654a 8d3d 41ef 8c3e 66f2 003e 9603 5dbe
00000170: a110 723d 28b7 4dbb 29cb 0cbd be08 93be
00000180: 84b7 363d 9eb2 a23e bc5c 6d3e cf79 58be
00000190: 8338 fc3d 4209 92be 1122 09be 59f3 5ebe
000001a0: 5444 6e3f 9842 efbb 2c7f 98bf 4f9e ccbf
000001b0: 5203 a5bc becf e03d aab8 03bf 386b 31bf
000001c0: 5ac7 ad3c e9e3 d83d 2415 ef3e fbfb fb3d
000001d0: 0d15 883e 54d9 89be da17 81be 948f cbbc
000001e0: 7cab cfbe 6941 e93d fdbb 453d 4fb6 e93d
000001f0: 5fb6 15bd 8762 1d3e 9492 b7bd 2e4c 7cbd
00000200: dc5d aa3e 925c 163f 08cb e5bc 441f 903d
00000210: ad17 ccbf 041e 93bf c741 a2be e326 18bc
00000220: d97c 953c abae 77bd de21 99bd dc13 7bbf
00000230: 7eac 973d 25af b2be f013 01bf 812d 303e
00000240: 5c49 14bf 64f3 00bf 30a2 713e bc7c 4dbd
00000250: 7177 af3d 1c23 9c3d 533d e2bf 2568 003f
00000260: fdaf bcbe 3bfa 31bf 38b5 a33e dc26 523e
00000270: e0c9 78bd 2ff2 72bd 9add 843e 4bac cb3d
00000280: bba9 103e d6d4 9bbd 3b33 d73e f279 79be
00000290: 7c44 143e e78d f2be 9103 193f 2409 21bd
000002a0: f37b aabe e741 9bbc 0239 713f 9187 9ebe
000002b0: 1e5e af3e b832 263e 1a88 96be bcbe 693e
000002c0: 8636 16bf 9378 14be 01c4 28bf 3616 173f
000002d0: 0cae 8bbf 9bfd d7bd e762 f4be 0211 f43c
000002e0: ca06 0d3e 65ca 703e 7ac0 49be abb4 b63e
000002f0: 0054 853e 309b 153e 5339 46be 8584 e63c
00000300: dfd0 eb3c fdd2 8b3d 36ae e3be df88 133e
00000310: b918 d5bd f3d7 443e a3df cbbc 034d 9cbe
00000320: fe10 c0bd 23e8 42be 088e 9e3c 66f2 02bf
00000330: 0d01 20bd ce2c 8ebd cf9d 6d3e 83d3 31be
00000340: 76d9 16bd 56e1 c83e e102 92bd d77b 493e
00000350: e0fd 84be 18db cbbe ffcb 03bf 34a7 823e
00000360: 3acd d83e ce68 a6be 89a8 9fbe 6b38 853e
00000370: e0f5 883e 573f 7ebe 07e8 aabc 0612 113e
00000380: eb3d 6c3e f910 6bbe fa9b 783b 6d9c 52be
00000390: 290e 48be a0a2 24bd 8195 433d 6ecd 153f
000003a0: 43e7 a43e 55b5 73bd edc1 bd3e cd43 093e
000003b0: 688d 44bf dd88 8d3d 7933 dfbe 74b6 cbbd
000003c0: 42a6 3d3d 4827 00be 30d8 7a3e cef0 90bf
000003d0: 5ec8 93be 376e 313b c58b cb3e 8833 edbd
000003e0: 28c9 563d 528c 923d 6a83 a63e c629 0f3e
000003f0: 7a71 a2be 8552 68bd d80c 593e a727 efbe

linear_relu_stack.6.bias f4 [64]
1.6451082 0.2618662 -0.7916903 1.1487623 1.3157662 -0.6376973 -0.4982543 0.9577238
0.5527918 1.7599998 -0.7027341 1.1654625 0.39625734 0.18068779 1.6607803 0.24629118
-2.8298852 -3.3891594 1.4144667 -0.4693265 1.5214412 -0.025538886 0.16959572 1.184393
1.8784145 1.8234593 -0.5697142 2.0429175 -1.4725422 -1.2719179 -0.7144425 2.5506952
1.437053 2.915111 2.3180873 -0.86193234 1.1361369 -0.51583993 -0.1986489 0.09426839
-0.20654713 1.8698883 0.012827698 1.6990982 -0.42382327 -3.2634907 0.44489673 0.74128747
1.1952587 1.9141977 0.9645147 -0.2438241 -0.16287895 0.9530941 1.9667121 0.8720117
1.7741756 0.203057 1.253806 1.1073644 1.4179788 -1.0840443 -0.29061797 0.9644497
00000000: e892 d23f 5413 863e 37ac 4abf a50a 933f
00000010: 076b a83f 2140 23bf 301b ffbe 632d 753f
00000020: c383 0d3f ac47 e13f 62e6 33bf e02d 953f
00000030: 3ee2 ca3e 3806 393e 7394 d43f c133 7c3e
00000040: d71c 35c0 fde7 58c0 3f0d b53f 904b f0be
00000050: 96be c23f ed36 d1bc 80aa 2d3e 319a 973f
00000060: e36f f03f 1d67 e93f cad8 11bf 29bf 0240
00000070: 437c bcbf 35ce a2bf b4e5 36bf 973e 2340
00000080: 5af1 b73f 2e91 3a40 8b5b 1440 99a7 5cbf
00000090: ef6c 913f 160e 04bf 9e6a 4bbe c90f c13d
000000a0: 1781 53be 8058 ef3f 442b 523c 0d7c d93f
000000b0: 5dff d8be 08dd 50c0 81c9 e33e 04c5 3d3f
000000c0: 3dfe 983f 6e04 f53f 6fea 763f 06ad 79be
000000d0: bdc9 26be fafd 733f 39bd fb3f 293c 5f3f
000000e0: 3018 e33f 2dee 4f3e b77c a03f 1ebe 8d3f
000000f0: 5480 b53f f7c1 8abf e1cb 94be 2de6 763f

linear_relu_stack.9.weight f4 [64, 64]
-0.15744385 -0.108359866 0.068509564 -0.048499808 0.2173507 0.16299258 -0.09552041 -0.04445262
-0.037423443 -0.40303692 0.026342351 0.01923786 0.020866312 0.035663676 0.6426286 0.26740453
0.15157208 -0.6980352 -0.07686064 -0.27418056 -0.22909851 -0.10712314 0.08796735 -0.30227706
-0.34428602 -0.052454926 -0.00046128652 0.075126894 0.25684094 -0.14393523 0.060832005 -0.13310014
-0.16383924 -0.10160211 0.1636861 -0.124327265 -0.096194826 0.088101 0.009673034 0.047795057
-0.19531228 -0.04117719 -0.28019717 -0.040033747 0.018032031 0.08584291 0.21149674 0.06173149
-0.3632535 0.038858388 -0.14671525 -0.15533777 -0.05988295 0.22092168 -0.03096345 0.1757302
-0.1543613 0.03906478 -0.061457545 0.33185443 -0.20598891 -0.24525003 0.1046862 0.079724394
0.007681554 -0.011226575 0.27152202 0.2591212 -0.022161804 -0.17914629 -0.18596706 0.13053729
0.10254746 0.55217546 0.1963134 0.2850863 0.06991939 -0.10673549 -0.2773311 -0.1892384
-0.13618058 -0.14602634 0.12379062 0.048940584 0.32703897 0.051966544 0.04653932 0.29440516
0.25249368 0.3278556 -0.075210184 -0.36965793 -0.08791154 0.2042003 0.00020598463 0.051991228
0.04098113 0.0736872 -0.027948007 -0.023119358 0.040598344 -0.29416636 0.0066873906 -0.2744118
0.22935429 -0.0126236295 0.027361041 0.11581205 0.0035683787 0.061345037 -0.06328014 0.16818725
0.119341016 0.29566908 -0.11392833 0.038248487 0.102223784 0.089081064 -0.06240173 -0.3463962
-0.0690828 -0.012383912 -0.18003865 -0.16422616 -0.0049485387 0.10815745 -0.01567253 0.016496865
-0.25392067 0.17601229 -0.003310591 -0.12470846 -0.04407148 -0.13798955 0.2516891 -0.016162101
0.1146781 0.043352053 0.048362456 -0.26816058 0.23028253 -0.123947576 -0.09214372 -0.037332714
-0.15216176 -0.5573546 0.056415483 0.17479935 -0.018682592 0.057314098 0.13248546 0.2502296
-0.2196756 -0.5935657 -0.026102962 0.11468776 0.036830973 -0.10755582 0.38936675 -0.13993728
0.052052252 -0.058179807 0.26204672 0.031168161 -0.27730277 0.19767019 0.115497366 -0.11177248
-0.4939691 -0.040461704 -0.2453461 -0.25725877 -0.28584942 -0.19419347 0.27112988 0.33314213
-0.15182547 -0.3152857 0.08155514 0.29614675 -0.13310428 -0.113405086 0.19159867 -0.10828628
0.024549743 -0.155948 0.4107817 -0.19168444 0.17245919 0.05034618 0.0544946 -0.1571627
-0.24046843 0.04146396 -0.028129539 0.67662996 0.15838954 -0.007815914 0.2288946 -0.2979103
-0.118283086 0.19428371 -0.10892501 -0.05263814 0.26928157 -0.030884948 -0.14272459 -0.19312502
-0.52262604 -0.12733223 -0.17200309 0.014322552 -0.07586896 -0.04260999 -0.07440743 -0.1903141
0.12548706 -0.13629827 0.3084182 -0.06987976 -0.38088802 -0.07627443 0.21288304 0.114180714
-0.09668826 0.10154234 -0.3359963 -0.18070416 -0.068527564 0.04196656 0.056882378 0.025875872
-0.23124012 0.19167611 -0.5679601 0.26357812 -0.42390305 -0.70567065 0.014004311 0.32457373
-0.75469005 0.13229884 -0.1820318 0.077677526 -0.08223467 0.13816123 0.08267555 0.15020815
-0.49781358 -0.02185483 0.2928954 -0.00255713 -0.27165768 -0.06428296 -0.23260239 -0.30348998
00000000: f638 21be c7eb ddbd be4e 8c3d bca7 46bd
00000010: 2f91 5e3e 87e7 263e 34a0 c3bd f313 36bd
00000020: 5349 19bd db5a cebe eacb d73c b798 9d3c
00000030: d4ef aa3c 1314 123d 4f83 243f 3fe9 883e
00000040: b635 1b3e 6fb2 32bf 1c69 9dbd 6561 8cbe
00000050: cd98 6abe 6063 dbbd 3a28 b43d 0fc4 9abe
00000060: 4246 b0be fada 56bd d4d8 f1b9 21dc 993d
00000070: a880 833e c263 13be fb2a 793d 674b 08be
00000080: 79c5 27be c414 d0bd 549d 273e 4b9f febd
00000090: cb01 c5bd 4c6e b43d a57b 1e3c c0c4 433d
000000a0: f1ff 47be 6aa9 28bd 0176 8fbe 6dfa 23bd
000000b0: e9b7 933c 68ce af3d 9a92 583e 29da 7c3d
000000c0: 5dfc b9be f929 1f3d 863c 16be dd10 1fbe
000000d0: d347 75bd 4b39 623e 10a7 fdbc 9ef2 333e
000000e0: e310 1ebe 6402 203d e8ba 7bbd d3e8 a93e
000000f0: c2ee 52be d322 7bbe b865 d63d 8b46 a33d
00000100: 8cb5 fb3b abef 37bc ef04 8b3e 89ab 843e
00000110: ac8c b5bc 2072 37be 266e 3ebe 91ab 053e
00000120: 6704 d23d 5f5b 0d3f 6106 493e d5f6 913e
00000130: e631 8f3d 2398 dabd 58fe 8dbe b6c7 41be
00000140: ec72 0bbe ee87 15be f085 fd3d ec75 483d
00000150: a771 a73e dfda 543d 04a0 3e3d 46bc 963e
00000160: da46 813e b0dc a73e cc07 9abd ce43 bdbe
00000170: f70a b4bd e219 513e 94fd 5739 c1f4 543d
00000180: d4db 273d 51e9 963d 38f3 e4bc cf64 bdbc
00000190: 734a 263d f99c 96be e621 db3b b47f 8cbe
000001a0: dadb 6a3e 57d3 4ebc 4324 e03c de2e ed3d
000001b0: 76db 693b ef44 7b3d 0599 81bd 4739 2c3e
000001c0: 1069 f43d f061 973e 4253 e9bd 72aa 1c3d
000001d0: b45a d13d 2270 b63d f598 7fbd d85a b1be
000001e0: 487b 8dbd e4e5 4abc 0d5c 38be e72a 28be
000001f0: 5a27 a2bb a781 dd3d ad63 80bc 6f24 873c
00000200: e401 82be 913c 343e 80f6 58bb 2667 ffbd
00000210: 4c84 34bd 224d 0dbe 65dd 803e 6266 84bc
00000220: 5adc ea3d ec91 313d b617 463d 584c 89be
00000230: 2fcf 6b3e 3ad8 fdbd d9b5 bcbd 30ea 18bd
00000240: 4bd0 1bbe cbae 0ebf ec13 673d 9afe 323e
00000250: 3c0c 99bc 30c2 6a3d 45aa 073e 181e 803e
00000260: a4f2 60be ecf3 17bf e1d5 d5bc 6be1 ea3d
00000270: 13dc 163d 3a46 dcbd 145b c73e b84b 0fbe
00000280: be34 553d f34d 6ebd fd2a 863e 5f54 ff3c
00000290: a1fa 8dbe 0e6a 4a3e e289 ec3d f8e8 e4bd
000002a0: 85e9 fcbe 2cbb 25bd 023c 7bbe 6cb7 83be
000002b0: db5a 92be a7da 46be 89d1 8a3e 9b91 aa3e
000002c0: 2378 1bbe 216d a1be 6206 a73d 8ca0 973e
000002d0: 7d4c 08be ed40 e8bd 7132 443e 32c5 ddbd
000002e0: 8b1c c93c d5b0 1fbe fb51 d23e ed48 44be
000002f0: 2499 303e cc37 4e3d bb35 5f3d 42ef 20be
00000300: 5b3d 76be 1dd6 293d eb6f e6bc 9f37 2d3f
00000310: de30 223e 520e 00bc 5963 6a3e b387 98be
00000320: 673e f2bd 4ff2 463e 1314 dfbd 179b 57bd
00000330: 46df 893e 6e02 fdbc 6526 12be 91c2 45be
00000340: d2ca 05bf 6163 02be 9421 30be 23a9 6a3c
00000350: 2f61 9bbd d087 2ebd ec62 98bd b3e1 42be
00000360: ae7f 003e c691 0bbe fee8 9d3e 1f1d 8fbd
00000370: c103 c3be c535 9cbd 03fe 593e 94d7 e93d
00000380: 7f04 c6bd 6ef5 cf3d b507 acbe 830a 39be
00000390: 2e58 8cbd 21e5 2b3d 7ffd 683d a3f9 d33c
000003a0: 36ca 6cbe be46 443e d565 11bf b6f3 863e
000003b0: d209 d9be d5a6 34bf 5672 653c 872e a63e
000003c0: 5e33 41bf 5979 073e 8b66 3abe 6515 9f3d
000003d0: a76a a8bd 237a 0d3e cc51 a93d 2ad0 193e
000003e0: 6ce1 febe e708 b3bc 63f6 953e 8695 27bb
000003f0: b716 8bbe c9a6 83bd 522f 6ebe 0a63 9bbe

linear_relu_stack.9.bias f4 [64]
0.770332 -0.26807874 1.0716778 1.380953 0.91079247 1.3972441 1.6763402 -0.3623761
1.3420043 0.9468889 0.8497822 -0.9725138 0.25086272 0.0862469 0.115970835 0.25879362
-0.060908485 0.85264903 -0.006142849 0.69552714 0.7058691 0.08522004 2.0922463 -0.94108486
1.6812431 1.1497836 1.7151345 -0.07293078 -0.208275 0.2122315 0.47199667 -0.25491545
1.810265 0.3511682 -0.3891266 0.7964341 -1.637197 0.43466666 0.14916113 1.2253492
0.23636222 1.4481909 1.334082 1.0173126 -1.955815 0.8167484 1.4675678 2.589454
0.28021523 0.5074663 -1.2161051 1.1229788 1.0572112 0.010324006 0.29444578 -0.22839715
0.61556524 -0.822747 0.6695446 1.37859 -0.27714875 1.1501588 0.7234876 1.2182394
00000000: 7a34 453f 9e41 89be bd2c 893f 11c3 b03f
00000010: b229 693f e5d8 b23f 5192 d63f 5c89 b9be
00000020: ccc6 ab3f 5067 723f 548b 593f aaf6 78bf
00000030: 1471 803e 37a2 b03d 1e82 ed3d 9980 843e
00000040: 2d7b 79bd 3547 5a3f f449 c9bb 110e 323f
00000050: d6b3 343f d887 ae3d 5de7 0540 f0ea 70bf
00000060: f932 d73f 1c2c 933f 8789 db3f bc5c 95bd
00000070: 0b46 55be 3753 593e 8ca9 f13e 4784 82be
00000080: c3b6 e73f 51cc b33e 9a3b c7be 1be3 4b3f
00000090: ac8f d1bf a18c de3e b2bd 183e 3ed8 9c3f
000000a0: f008 723e 525e b93f 33c3 aa3f 4d37 823f
000000b0: 2558 fabf 6c16 513f 43d9 bb3f 9db9 2540
000000c0: 5f78 8f3e 50e9 013f 55a9 9bbf c5bd 8f3f
000000d0: b252 873f 0526 293c 99c1 963e f1e0 69be
000000e0: af95 1d3f 8c9f 52bf 4667 2b3f a375 b03f
000000f0: 71e6 8dbe 6738 933f 7c36 393f 45ef 9b3f

linear_relu_stack.12.weight f4 [20, 64]
-0.1267699 -0.4312401 -0.87130874 -0.48645127 -0.4604704 -0.56169534 -0.044229325 -0.48937696
-0.3749894 0.14316474 0.73753476 -0.6701244 0.41277418 0.2661978 -0.54614896 -1.2968625
-0.0033895033 -0.8773663 0.36550826 -0.22772488 0.09323481 -1.8146839 -1.5553848 -0.21345866
0.5183955 -0.04839206 -0.318272 0.10211285 0.20657104 -0.1290291 -0.11715729 -0.30670205
-1.6157783 -0.058014035 0.12842414 0.37028885 0.03844483 -0.55695564 0.35429007 0.25126258
-0.9510045 -1.2234789 0.24424669 0.09307471 0.07643768 -0.1795047 0.51837575 -0.16424838
-0.89877826 -14.405641 -0.0007086881 -0.404036 -0.06996427 0.3781653 0.8414492 0.02301559
0.8136915 0.1003625 -0.09622273 -2.6373937 -0.049887467 0.16270238 -0.7712043 -0.7974441
-0.15019883 0.10792438 0.004130514 -0.008875427 0.030486912 -0.003647272 0.022362003 -0.038144164
-0.037816167 -0.0672865 0.13380535 0.054460764 0.04144093 0.085774295 -0.07136416 -0.07201692
0.019208433 0.05279955 0.05029884 0.05854475 -0.0108695645 0.11840576 0.21839927 -0.17365132
0.061450712 -0.09076476 -0.052761253 0.022898132 0.055304416 0.016288338 -0.010211699 -0.07131505
0.12280122 -0.01053079 0.019112363 -0.036062863 0.043190423 -0.02059787 -0.08729746 0.10987643
-0.04093938 0.13599421 -0.06548981 0.07875628 0.038913913 0.10382436 0.025707424 0.013042006
-0.27966976 0.011613578 0.010527184 0.052734524 -0.0039162193 0.15862297 0.023223 -0.05359361
0.006278835 -0.06175982 0.0040413695 0.013959076 -0.07819664 0.08257628 0.109156564 -0.011497309
-0.006146686 0.17925774 -0.22344479 0.048719212 0.08871482 -0.2849454 0.21220712 0.104522176
0.034252368 -0.02778769 0.08176539 0.14296044 0.24804357 0.35331064 0.046318915 -0.006825195
0.08219474 -0.1049689 0.10506051 0.11494038 -0.08891545 0.017219737 0.043841675 0.057163175
-0.17476104 -0.20238426 -0.20707162 -0.12246416 -0.035084166 0.026086437 0.2113351 -0.049461327
-0.02329443 -0.034526933 0.18821551 0.026283426 -0.120601505 -0.16965742 0.054056928 0.14327985
-0.057219103 -0.065407775 -0.025083385 0.0027125853 0.11657035 -0.2116347 0.095961235 0.068784736
-0.055740695 -0.0008200337 -0.10975908 -0.2752476 -0.2365184 0.058708496 -0.057025053 -0.08338042
0.13986559 0.0015452384 0.08827682 0.07187614 -0.0666269 0.0045568873 0.15429284 0.19240762
0.1869096 0.08057913 0.072622135 -0.10554543 -0.052209508 0.05633695 -0.4621248 -0.10370755
-0.951069 0.16754866 0.25941527 0.10753518 0.046620853 0.11951188 -0.26179415 -0.01218293
0.051749386 0.06538763 0.028721007 0.07710421 -0.24255855 -1.0045706 0.5639938 -0.13554797
0.013271507 -0.15291055 -0.11521447 -0.01350173 0.032948535 -0.015065693 -0.019507984 -0.17811787
-1.1364441 0.01705534 0.032221746 0.39008006 -0.17711903 0.004865679 0.06711974 0.20784031
-0.14536509 0.087519914 -0.11862066 0.12721552 0.057870377 -0.0539648 0.058352858 -0.7544688
0.35436746 -0.05080978 0.005321102 0.05320223 0.06116848 0.044424072 -0.008071958 -0.021984918
-0.10786101 -0.057581704 0.05846475 -0.3657331 -0.19344714 -0.0069784867 -0.103819095 -0.14726587
00000000: f8cf 01be 81cb dcbe 170e 5fbf 2410 f9be
00000010: c7c2 ebbe 44cb 0fbf cf29 35bd 9e8f fabe
00000020: 9cfe bfbe c799 123e 14cf 3c3f 468d 2bbf
00000030: 2357 d33e 144b 883e 6bd0 0bbf 97ff a5bf
00000040: 6e22 5ebb 149b 60bf e623 bb3e b630 69be
00000050: e4f1 be3d 9047 e8bf d916 c7bf e894 5abe
00000060: 91b5 043f c136 46bd 8cf4 a2be 8b20 d13d
00000070: 5c87 533e 3420 04be 29f0 efbd 0d08 9dbe
00000080: d3d1 cebf 20a0 6dbd 9e81 033e 8096 bd3e
00000090: 5378 1d3d a594 0ebf 8265 b53e 7da5 803e
000000a0: 0875 73bf f59a 9cbf ce1b 7a3e f49d be3d
000000b0: 5c8b 9c3d 14d0 37be 46b4 043f ba30 28be
000000c0: 5516 66bf 817d 66c1 41c7 39ba cedd cebe
000000d0: 6d49 8fbd e29e c13e 3769 573f 318b bc3c
000000e0: 164e 503f db8a cd3d 6c10 c5bd 0fcb 28c0
000000f0: cd56 4cbd 749b 263e a56d 45bf 4c25 4cbf
00000100: b9cd 19be 7507 dd3d 4359 873b 3d6a 11bc
00000110: b0bf f93c 1207 6fbb 8530 b73c 0e3d 1cbd
00000120: 20e5 1abd 81cd 89bd 4504 093e 4012 5f3d
00000130: f7bd 293d 6faa af3d 5f27 92bd 9b7d 93bd
00000140: 015b 9d3c 5744 583d 2806 4e3d 9fcc 6f3d
00000150: 4216 32bc b87e f23d 0fa4 5f3e a7d1 31be
00000160: beb3 7b3d e0e2 b9bd 2f1c 58bd dd94 bb3c
00000170: e286 623d 1f6f 853c f84e 27bc a00d 92bd
00000180: 357f fb3d 5689 2cbc 8891 9c3c a7b6 13bd
00000190: 71e8 303d ddbc a8bc 03c9 b2bd e506 e13d
000001a0: 0db0 27bd 1142 0b3e 861f 86bd f94a a13d
000001b0: 3264 1f3d dea1 d43d 6098 d23c 23ae 553c
000001c0: e030 8fbe e046 3e3c 367a 2c3c 2800 583d
000001d0: a153 80bb 0f6e 223e 293e be3c f984 5bbd
000001e0: afbe cd3b ddf7 7cbd 776d 843b 9cb4 643c
000001f0: 8f25 a0bd c11d a93d 7a8d df3d 365f 3cbc
00000200: 246a c9bb 578f 373e b6ce 64be cc8d 473d
00000210: 1eb0 b53d 5de4 91be d34c 593e b90f d63d
00000220: 364c 0c3d 02a3 e3bc 9d74 a73d 3964 123e
00000230: 22ff 7d3e 22e5 b43e e7b8 3d3d e3a5 dfbb
00000240: b755 a83d eff9 d6bd f729 d73d dd65 eb3d
00000250: 4e19 b6bd 6810 8d3c 5493 333d ef23 6a3d
00000260: 8ff4 32be d23d 4fbe 950a 54be 7dce fabd
00000270: 6ab4 0fbd 39b3 d53c 3a68 583e f697 4abd
00000280: f6d3 bebc 1d6c 0dbd 91bb 403e 5750 d73c
00000290: ecfd f6bd adba 2dbe cc6a 5d3d f4b7 123e
000002a0: 945e 6abd 83f4 85bd ac7b cdbc a1c5 313b
000002b0: 70bc ee3d c4b6 58be 5387 c43d 03df 8c3d
000002c0: 5b50 64bd 88f7 56ba 5ec9 e0bd 41ed 8cbe
000002d0: e131 72be 5278 703d 1a93 69bd 5bc3 aabd
000002e0: ed38 0f3e 9989 ca3a 7aca b43d cc33 933d
000002f0: af73 88bd f151 953b f1fe 1d3e 8106 453e
00000300: 3b65 3f3e ac06 a53d eaba 943d 3428 d8bd
00000310: a3d9 55bd 93c1 663d 9f9b ecbe a064 d4bd
00000320: 4279 73bf e091 2b3e 14d2 843e 683b dc3d
00000330: 82f5 3e3d a5c2 f43d e209 86be e99a 47bc
00000340: 2af7 533d f3e9 853d 5148 eb3c d0e8 9d3d
00000350: 4561 78be c595 80bf e661 103f 16cd 0abe
00000360: bc70 593c 9594 1cbe 90f5 ebbd 5c36 5dbc
00000370: 0bf5 063d 19d6 76bc 35cf 9fbc 8864 36be
00000380: 0077 91bf a4b7 8b3c f3fa 033d 93b8 c73e
00000390: b15e 35be 4670 9f3b 1376 893d 17d4 543e
000003a0: 96da 14be a43d b33d 63ef f2bd c944 023e
000003b0: 7d09 6d3d 320a 5dbd 6803 6f3d de24 41bf
000003c0: a76f b53e ea1d 50bd a45c ae3b 95ea 593d
000003d0: cd8b 7a3d 04f6 353d 3f40 04bc b719 b4bc
000003e0: 3ce6 dcbd cbda 6bbd bc78 6f3d 5e41 bbbe
000003f0: 0217 46be caab e4bb 1b9f d4bd ddcc 16be

linear_relu_stack.12.bias f4 [20]
4.4354067 -0.41853052 -0.21265575 -0.43077824 -0.7130519 -0.5518838 -0.37862688 0.13484275
-0.009074814 0.6109588 -0.041000016 -0.04114499 0.07535183 0.1975352 0.24496107 0.33952647
0.12615994 -0.069925904 0.20410778 0.45662883
00000000: daee 8d40 a249 d6be 6ec2 59be f78e dcbe
00000010: 928a 36bf 4248 0dbf 62db c1be 3814 0a3e
00000020: 87ae 14bc cc67 1c3f a2ef 27bd a687 28bd
00000030: 0f52 9a3d ab46 4a3e 13d7 7a3e 6ad6 ad3e
00000040: 1230 013e 5035 8fbd a101 513e 41cb e93e
