oversampling/OS_parameters.pth (torch, 104647 bytes, 10 tensors)

linear_relu_stack.0.weight f4 [64, 180]
0.49842146 -0.18968827 -3.0980341 0.40908632 -0.93621063 -3.1964667 0.35757467 0.20404229
-0.19059062 0.045738477 0.14179473 -0.1468516 0.10123817 -0.04086786 -0.013724428 0.027253129
-0.02744185 -0.08565743 0.05786837 -0.04193334 -0.0718773 0.0382938 -0.063384205 -0.0727871
-0.020151176 -0.0618211 -0.019110288 -0.0044245953 -0.060808405 -0.043327235 0.0033231901 -0.017537214
-0.0069914777 -0.029507067 -0.05159736 -0.015123982 -0.015064895 -0.030696755 -0.009397641 0.026646214
-0.04435844 -0.02066574 0.016597604 -0.06168404 -0.008046083 0.035564516 -0.02990683 -0.0005008833
1.3218285 -2.0526438 -1.192418 1.9660816 0.8899838 -0.5035718 -0.7754116 0.8070693
-0.61249405 0.27879727 -0.27728444 0.08041935 0.31489217 1.1870428 -0.3361651 0.13227835
-0.19442715 0.237502 -1.0188723 -0.14835745 -0.123558566 0.41194743 -0.5339557 0.16491665
0.4552303 0.26425385 -0.23056011 0.60330963 0.28858835 -0.014925178 -0.20526777 0.5336451
0.45220074 0.22156042 -0.050539605 0.5466576 0.3005298 -0.027659398 -0.1826824 0.14406188
0.19975589 0.24931884 -0.02357148 0.26605546 0.37148958 0.037488826 -0.08059522 0.12248265
-0.2811741 -0.39121076 -0.40501454 -0.22864223 -0.25536865 -0.2675455 -0.12555735 -0.07836856
-0.20306222 -0.15950695 -0.12200654 -0.151605 -0.27128047 -0.055797707 0.12331791 0.05128332
2.7075515 -3.7710855 -1.8274932 -0.17922477 -0.021310123 -0.74255985 0.74423903 -0.73267406
-0.4381291 -0.5685856 1.3154022 -0.3792273 -0.23134781 -0.039824612 -0.040415242 -0.069719575
-0.109513804 0.4012119 0.8832382 0.08383819 -0.21259616 0.6259627 0.13594688 0.41956934
0.005614251 0.3735727 -0.03751133 0.42835826 0.014519664 0.4344008 0.056141578 0.21066335
-0.11863291 0.41002685 -0.52026385 0.55460805 -0.00887364 0.007904994 -0.31558716 0.21654281
-0.61762977 -0.119243845 -0.61190087 0.26541004 -0.25419447 0.1230087 -0.4280324 0.05779075
-0.20121534 0.20183891 -0.22819397 0.02477702 -0.15035082 0.25589103 -0.2827924 0.119150326
-0.12746952 0.030881053 -0.22929758 -0.021090712 -0.1124318 -0.040627897 -0.18470776 0.0046572112
-0.108632684 0.124226384 0.19949669 -0.14984027 0.3628076 0.8646543 -2.071635 0.41108373
0.35818717 -0.53483933 0.16247614 0.043869264 -0.026263895 -0.028052876 -0.19221683 -0.13786136
0.10546278 -0.06441548 -0.02813971 0.091408096 -0.020916304 -0.064602375 0.07472413 -0.07782643
-0.021917393 0.08900723 -0.06705302 -0.0030089116 0.037632976 -0.08562236 -0.0053244364 0.030765705
-0.119642116 0.028187552 0.009171529 -0.074284196 -0.006480383 0.011614924 -0.0250642 0.0216193
0.012388952 -0.050752487 0.045267873 -0.012759989 -0.02928972 0.056520864 0.008421475 -0.013555882
0.050866798 -0.004551495 -0.012074077 0.00957315 -0.71185845 -0.6872642 -1.4198455 1.4536525
-1.2324266 -1.3266712 -1.5597548 0.8862629 -1.139711 -0.2582699 -0.39311212 0.6674856
0.28106284 -0.4390957 -0.2262543 1.4365778 -0.22700177 -0.32654232 -0.30948356 0.305717
-0.035238497 -0.88808787 -0.41950294 0.21609487 0.10280164 -0.69864017 -0.2511903 -0.0025534236
00000000: 1931 ff3e a43d 42be 3146 46c0 c373 d13e
00000010: 80ab 6fbf e992 4cc0 0714 b73e 76f0 503e
00000020: 302a 43be 4558 3b3d a332 113e 4460 16be
00000030: f555 cf3d 0f65 27bd 6cdc 60bc f441 df3c
00000040: bbcd e0bc 2a6d afbd 6207 6d3d 4bc2 2bbd
00000050: 6834 93bd f6d9 1c3d 94cf 81bd 6711 95bd
00000060: 1414 a5bc 1f38 7dbd 2e8d 9cbc 32fc 90bb
00000070: 3c12 79bd e677 31bd e1c9 593b 34aa 8fbc
00000080: c418 e5bb ceb8 f1bc c157 53bd 94ca 77bc
00000090: c0d2 76bc c377 fbbc 90f8 19bc 2949 da3c
000000a0: 32b1 35bd 334b a9bc b3f7 873c 67a8 7cbd
000000b0: b8d3 03bc 19ac 113d 2bff f4bc b64d 03ba
000000c0: ad31 a93f 845e 03c0 27a1 98bf 90a8 fb3f
000000d0: fad5 633f 15ea 00bf 6081 46bf 189c 4e3f
000000e0: 69cc 1cbf 84be 8e3e 3af8 8dbe e6b2 a43d
000000f0: 8c39 a13e 05f1 973f d51d acbe fa73 073e
00000100: e917 47be b933 733e 686a 82bf 04eb 17be
00000110: 460c fdbd c6ea d23e 52b1 08bf e9df 283e
00000120: f213 e93e 484c 873e f317 6cbe 8072 1a3f
00000130: dac1 933e bc88 74bc b731 52be f79c 083f
00000140: db86 e73e bce0 623e 9e02 4fbd c1f1 0b3f
00000150: 0bdf 993e f695 e2bc 1811 3bbe f584 133e
00000160: cf8c 4c3e 704d 7f3e fa18 c1bc 6c38 883e
00000170: e233 be3e e28d 193d 1b0f a5bd 2fd8 fa3d
00000180: 0df6 8fbe c74c c8be 115e cfbe 3021 6abe
00000190: aebf 82be b9fb 88be 1b92 00be b27f a0bd
000001a0: 8bef 4fbe ca55 23be 91de f9bd 573e 1bbe
000001b0: 46e5 8abe 238c 64bd 1a8e fc3d 750e 523d
000001c0: 8648 2d40 7759 71c0 4ceb e9bf b386 37be
000001d0: 9192 aebc 6718 3ebf 7386 3e3f 8790 3bbf
000001e0: 7552 e0be d38e 11bf 195f a83f 152a c2be
000001f0: 71e6 6cbe 221f 23bd 748a 25bd 23c9 8ebd
00000200: c648 e0bd a56b cd3e e61b 623f 5bb3 ab3d
00000210: cfb2 59be 173f 203f a935 0b3e cbd1 d63e
00000220: c0f7 b73b ec44 bf3e 7ba5 19bd c651 db3e
00000230: e3e3 6d3c c869 de3e b6f4 653d 22b8 573e
00000240: d0f5 f2bd 0aef d13e 0330 05bf cbfa 0d3f
00000250: be62 11bc f383 013c a494 a1be 66bd 5d3e
00000260: fc1c 1ebf 1e36 f4bd 89a5 1cbf d3e3 873e
00000270: c725 82be fceb fb3d 1027 dbbe feb5 6c3d
00000280: 650b 4ebe dcae 4e3e aeab 69be 2df9 ca3c
00000290: 91f5 19be 2604 833e 2aca 90be 1605 f43d
000002a0: 5f87 02be 43fa fc3c fccc 6abe 6ec6 acbc
000002b0: a542 e6bd 7069 26bd 0824 3dbe 859b 983b
000002c0: d07a debd 676a fe3d dc48 4c3e ba6f 19be
000002d0: ebc1 b93e fc59 5d3f ab95 04c0 9179 d23e
000002e0: 4f64 b73e 3beb 08bf 2560 263e 42b0 333d
000002f0: 6127 d7bc 25cf e5bc 7dd4 44be 872b 0dbe
00000300: dffc d73d 43ec 83bd 4085 e6bc 2b34 bb3d
00000310: ab58 abbc 404e 84bd f708 993d 7763 9fbd
00000320: 1b8c b3bc 6c49 b63d 1853 89bd 2931 45bb
00000330: 0925 1a3d c75a afbd 9c78 aebb 5c08 fc3c
00000340: ed06 f5bd 95e9 e63c 2e44 163c 5022 98bd
00000350: 6559 d4bb 864c 3e3c 7053 cdbc f51a b13c
00000360: 08fb 4a3c d7e1 4fbd ce6a 393d 460f 51bc
00000370: fff0 efbc 6c82 673d 3afa 093c 7d19 5ebc
00000380: b459 503d b524 95bb 59d2 45bc b4d8 1c3c
00000390: 5b3c 36bf 8cf0 2fbf 7fbd b5bf 4911 ba3f
000003a0: 28c0 9dbf 5dd0 a9bf 0ca6 c7bf 20e2 623f
000003b0: 0de2 91bf f43b 84be fe45 c9be 56e0 2a3f
000003c0: 78e7 8f3e 27d1 e0be 35af 67be c8e1 b73f
000003d0: 2773 68be 8e30 a7be a174 9ebe f086 9c3e
000003e0: 3e56 10bd ba59 63bf 17c9 d6be f947 5d3e
000003f0: ab89 d23d 15da 32bf 049c 80be 5757 27bb

linear_relu_stack.0.bias f4 [64]
3.0550983 -0.37449864 -1.0468189 -0.13936584 -1.1314855 3.135874 -0.117932335 -2.8921328
-1.9577566 0.0593264 1.3290365 -0.84182143 -0.28129148 -1.1744512 -1.1663357 -2.4221897
0.039065 0.0035371892 -2.2235448 -0.0002293035 -1.0104743 -2.1512408 -2.5527682 0.86014974
0.8546818 -0.40766245 2.6216679 -3.0442216 -0.7215123 -2.9287655 1.6741384 0.05099435
-1.3125587 0.67258036 -2.7698555 0.8767014 0.5710641 -0.033473272 -1.2331595 -2.235818
-2.5880196 2.805228 -0.74146515 0.7733301 0.53258944 0.84444565 -1.1899042 2.0716918
-2.0403192 -2.7384686 -0.5338948 -1.1152023 2.7968237 -0.4255129 1.427627 1.1283638
1.4309179 0.8642928 -1.4848925 2.5173264 2.386106 -0.70152324 1.7901888 0.6343325
00000000: bb86 4340 49be bfbe 29fe 85bf ebb5 0ebe
00000010: 84d4 90bf 29b2 4840 8286 f1bd b418 39c0
00000020: c597 fabf 3d00 733d de1d aa3f 9c81 57bf
00000030: 7005 90be 6b54 96bf 7d4a 95bf 2805 1bc0
00000040: 9f02 203d 30d0 673b 8f4e 0ec0 3171 70b9
00000050: 3957 81bf eead 09c0 8e60 23c0 c632 5c3f
00000060: 6dcc 5a3f 22b9 d0be 68c9 2740 87d4 42c0
00000070: 08b5 38bf e570 3bc0 2b4a d63f 74df 503d
00000080: ec01 a8bf 3a2e 2c3f 5045 31c0 816f 603f
00000090: 4231 123f 451b 09bd 2cd8 9dbf a417 0fc0
000000a0: 1da2 25c0 db88 3340 a9d0 3dbf f6f8 453f
000000b0: c857 083f 972d 583f c84e 98bf 9996 0440
000000c0: 9794 02c0 1243 2fc0 54ad 08bf f3be 8ebf
000000d0: 29ff 3240 d4dc d9be 7bbc b63f 3a6e 903f
000000e0: 5128 b73f 4b42 5d3f f510 bebf e01b 2140
000000f0: f6b5 1840 0797 33bf e824 e53f 9d63 223f

linear_relu_stack.3.weight f4 [64, 64]
-0.39664316 0.1330354 -0.20252976 -0.12611555 -0.40573096 0.22393885 -0.083444506 -0.22883451
0.4180349 -0.14028408 -0.14390305 -0.076595165 0.04067345 0.0028497742 -0.17542915 0.6060721
0.1478802 -0.6887169 -0.027003577 -0.030117288 -0.0060397694 -0.1475898 0.24764219 0.6005791
-0.31987667 -0.34316728 0.19714329 -0.55846435 -0.1616648 -0.28777215 0.045821488 -0.9126649
0.29841048 -0.07696445 -0.3298267 0.14717652 -0.013656322 0.015390071 0.5451622 -0.06395165
0.064042136 0.3619315 -0.07142337 0.0936997 0.15703887 0.35496184 -0.13559602 0.04837335
-0.21223256 -0.28838217 -0.031792935 -0.5574973 -0.01658847 0.106930606 0.03175916 0.21992458
-0.121630915 0.7886752 0.2812429 -0.011118888 -0.14102899 -0.2548203 -0.036618434 -0.09633753
0.1374968 -0.07095353 0.0205861 0.018569887 -0.022302749 -0.1327413 -0.000711092 0.09957947
-0.25762612 -0.050056197 -0.06565703 0.017396491 0.027047405 -0.13245538 -0.020530883 -0.5530663
0.7361662 0.017948225 -0.10067134 0.6366234 0.41762158 0.007264908 -0.24818192 0.63508713
0.00497441 0.0057540075 -0.34748042 0.039336637 0.40441912 -0.64320797 -0.09449743 0.04559396
-0.18742646 0.02220116 0.028261175 0.6657784 -0.03419879 -0.17558537 0.34224525 -0.07679377
-0.047738 -0.41444722 0.66484344 0.64663446 -0.01529866 0.6553401 0.02778474 -0.004168977
-0.04461637 0.024019964 -0.012086379 -0.09204015 -0.40122724 -0.02363602 0.99870366 0.04625006
0.24087079 0.18028088 -0.037403215 0.1327131 -0.051319495 0.32903326 -0.43137008 0.052981313
-0.38047445 -0.060614936 -0.12935372 -0.020523278 0.21452464 -0.44150564 0.04136865 -0.1914197
0.049791325 0.275202 0.26264933 0.077680014 0.16264151 -0.29155317 0.16074896 -0.17129387
-0.311124 -0.34610826 0.3369691 -0.10322549 0.036822535 0.063967496 0.08051772 -0.13682738
-0.031184036 -0.06176038 0.39091134 -0.033801712 -0.19337714 0.24986896 -0.09923974 -0.1752492
-0.3931365 -0.030127633 -0.045479998 -0.5145924 -0.27710864 0.4955207 0.72079664 0.039719492
0.038562413 0.2358855 -0.3637378 -0.2671494 0.118145764 -0.89428246 0.016557267 0.14179826
0.24502553 0.06932094 0.014996989 0.03968823 -0.821767 -0.056312595 -0.42709553 -0.14661981
-0.071884006 -0.15421554 -0.024915533 0.10276238 0.25523216 -0.09485458 -0.08684714 0.34128046
-0.27079248 -0.34874994 0.063861355 -0.24427122 0.010502688 0.08616929 0.07319367 0.14229715
-0.0032020046 -0.12940858 -0.24507383 -0.1659763 0.056892384 -0.030627025 -0.43394688 -0.9624496
-0.018685976 -0.05841019 -0.27409264 0.13671306 0.41068104 -0.06741335 -0.32268947 -0.15608999
0.02951117 -0.1401999 -0.5001261 7.950643e-05 -0.08500737 -0.36319152 -0.34039944 -0.16751349
0.32910872 0.1611417 -0.003913085 -0.317848 -2.7755978 0.07471606 -0.33173046 0.049061775
0.04394821 0.21778315 -0.1616789 0.1349041 -0.23162416 0.018226545 0.03568005 0.28971383
-0.07128137 -0.15969318 -0.08756045 0.4181805 0.008137962 0.25107315 -0.07138381 0.5622861
0.34001592 0.030836798 0.082720295 0.16488254 0.61543983 -0.16793135 0.21162672 0.49223357
00000000: d014 cbbe 6f3a 083e f663 4fbe 6f24 01be
00000010: f8bb cfbe 3a50 653e f4e4 aabd 9853 6abe
00000020: ac08 d63e a1a6 0fbe 525b 13be eddd 9cbd
00000030: 3499 263d 47c3 3a3b b3a3 33be 8b27 1b3f
00000040: e86d 173e c04f 30bf 9b36 ddbc 88b8 f6bc
00000050: 42e9 c5bb c821 17be ea95 7d3e 8dbf 193f
00000060: e0c6 a3be 9fb3 afbe eedf 493e 85f7 0ebf
00000070: 758b 25be df56 93be 50af 3b3d 68a4 69bf
00000080: 42c9 983e 8a9f 9dbd 0cdf a8be 71b5 163e
00000090: c4be 5fbc a326 7c3c c08f 0b3f 15f9 82bd
000000a0: 8628 833d 164f b93e 6a46 92bd a1e5 bf3d
000000b0: ccce 203e 8fbd b53e afd9 0abe 2223 463d
000000c0: 7e53 59be d4a6 93be 4f39 02bd 25b8 0ebf
000000d0: 8be4 87bc 6ffe da3d e515 023d e933 613e
000000e0: a119 f9bd 9ee6 493f 12ff 8f3e ff2b 36bc
000000f0: e769 10be ce77 82be 36fd 15bd 9c4c c5bd
00000100: f6cb 0c3e 1650 91bd 2ea4 a83c e01f 983c
00000110: 41b4 b6bc 56ed 07be 9468 3aba 52f0 cb3d
00000120: 92e7 83be ba07 4dbd 3177 86bd 1683 8e3c
00000130: 8592 dd3c 62a2 07be 6230 a8bc c195 0dbf
00000140: 6375 3c3f 2808 933c c72c cebd c0f9 223f
00000150: 7fd2 d53e 770e ee3b 6723 7ebe 1295 223f
00000160: 6000 a33b 1d8c bc3b f4e8 b1be 741f 213d
00000170: 0610 cf3e 47a9 24bf de87 c1bd bbc0 3a3d
00000180: b9ec 3fbe 35df b53c fb83 e73c 7470 2a3f
00000190: 0814 0cbd a7cc 33be c53a af3e 0d46 9dbd
000001a0: ec88 43bd 6d32 d4be 2e33 2a3f d689 253f
000001b0: 3ba7 7abc 5ec4 273f d39c e33c ea9b 88bb
000001c0: a8bf 36bd 84c5 c43c f305 46bc 8c7f bcbd
000001d0: a86d cdbe 54a0 c1bc 0bab 7f3f b470 3d3d
000001e0: d5a6 763e 8d9b 383e 1d34 19bd f1e5 073e
000001f0: 6434 52bd 0c77 a83e 8adc dcbe ef02 593d
00000200: 8ccd c2be 5e47 78bd 4d75 04be 6f20 a8bc
00000210: 59ac 5b3e 070d e2be 2c72 293d 8703 44be
00000220: fdf1 4b3d 47e7 8c3e f979 863e b316 9f3d
00000230: 7f8b 263e 7546 95be 609b 243e a967 2fbe
00000240: a54b 9fbe 1a35 b1be 3787 ac3e e367 d3bd
00000250: 3ad3 163d 6401 833d 79e6 a43d 7a1c 0cbe
00000260: aa75 ffbc 74f8 7cbd 8825 c83e aa73 0abd
00000270: a804 46be a6dd 7f3e 343e cbbd 8774 33be
00000280: 3049 c9be 3ace f6bc 3c49 3abd 54bc 03bf
00000290: 2fe1 8dbe e4b4 fd3e 2186 383f e8b0 223d
000002a0: 9ff3 1d3d f88b 713e d73b babe cec7 88be
000002b0: 68f6 f13d b2ef 64bf 1ba3 873c 9033 113e
000002c0: f9e7 7a3e 23f8 8d3d eeb5 753c 2090 223d
000002d0: 525f 52bf 09a8 66bd 44ac dabe 8123 16be
000002e0: ec37 93bd aeea 1dbe a91b ccbc 1575 d23d
000002f0: caad 823e 1e43 c2bd eadc b1bd 50bc ae3e
00000300: 50a5 8abe 5a8f b2be bec9 823d 3c22 7abe
00000310: 7713 2c3c 8679 b03d 90e6 953d 58b6 113e
00000320: b9d8 51bb af83 04be a2f4 7abe b1f5 29be
00000330: fd07 693d 87e5 fabc 492e debe 1963 76bf
00000340: 5513 99bc 863f 6fbd df55 8cbe 82fe 0b3e
00000350: c944 d23e 0310 8abd 8e37 a5be 0ed6 1fbe
00000360: 69c1 f13c 9090 0fbe 4408 00bf b1bc a638
00000370: 5818 aebd 3df4 b9be d648 aebe a888 2bbe
00000380: f080 a83e 5402 253e 5639 80bb f9bc a2be
00000390: 65a3 31c0 bc04 993d 93d8 a9be 00f5 483d
000003a0: 0a03 343d 8c02 5f3e 278f 25be 4d24 0a3e
000003b0: e22e 6dbe d64f 953c 3e25 123d 5f55 943e
000003c0: f8fb 91bd 9c86 23be e552 b3bd c11b d63e
000003d0: 1655 053c a98c 803e ad31 92bd fbf1 0f3f
000003e0: 9116 ae3e 749d fc3c 4269 a93d f8d6 283e
000003f0: 778d 1d3f 32f6 2bbe adb4 583e 0a06 fc3e

linear_relu_stack.3.bias f4 [64]
-0.08227066 -2.667057 0.027379675 2.103415 -1.650012 -2.1144092 2.0000072 -1.0563215
0.8968301 0.5492242 0.37527898 -0.5713501 0.5056736 -0.461693 0.37956765 -0.82785714
0.3318273 0.56145453 -0.40462846 -2.6363947 4.418122 -1.982655 0.28205445 0.2430704
0.5811719 -0.25727704 -1.1504574 -0.9634145 -1.3730366 -3.282765 1.9728781 0.7382346
0.9949912 -0.014924039 2.3495445 -0.429102 -0.31226712 1.4107769 -1.1999655 -0.9301949
-0.22896567 0.27545318 -0.77055347 -0.6007541 2.2216365 -0.40593696 -1.5854203 0.823499
-0.257836 -0.41134664 -0.56696695 1.071273 0.06503183 -0.27575985 -2.4587607 -1.4551272
3.0086324 -2.0840964 -0.16666815 4.463189 -2.4238627 2.7920973 -2.0282888 -0.20343336
00000000: 857d a8bd 10b1 2ac0 574b e03c 5a9e 0640
00000010: 9833 d3bf 7b52 07c0 1e00 0040 8b35 87bf
00000020: a896 653f f599 0c3f 9124 c03e 0044 12bf
00000030: d373 013f 0663 ecbe b156 c23e 72ee 53bf
00000040: 45e5 a93e 7cbb 0f3f 762b cfbe b1ba 28c0
00000050: 4161 8d40 a4c7 fdbf 7169 903e 72e7 783e
00000060: aec7 143f d1b9 83be 3042 93bf 55a2 76bf
00000070: aabf afbf d218 52c0 4587 fc3f f1fc 3c3f
00000080: beb7 7e3f f583 74bc f05e 1640 42b3 dbbe
00000090: 7ae1 9fbe 5694 b43f 7898 99bf 4121 6ebf
000000a0: fa75 6abe 3308 8d3e fe42 45bf 05cb 19bf
000000b0: 4b2f 0e40 f8d6 cfbe 0def cabf d5d0 523f
000000c0: 1503 84be 079c d2be bf24 11bf 791f 893f
000000d0: 682f 853d 6530 8dbe 565c 1dc0 9c41 babf
000000e0: 6f8d 4040 d661 05c0 0eab 2abe 72d2 8e40
000000f0: 9120 1bc0 b9b1 3240 7ccf 01c0 d650 50be

linear_relu_stack.6.weight f4 [64, 64]
0.024404846 0.05721873 0.14282687 -0.24348402 -0.08024123 0.13024133 0.005375726 0.20315109
-0.4730281 -0.17340356 -0.055417757 -0.36261752 0.34064355 0.13036011 -0.10594221 0.046416435
0.17698807 0.14829294 -0.25892955 0.20405328 0.020420387 -0.010392976 -0.0740301 -0.056654535
0.088390626 -0.83886456 0.03866072 0.2543297 -0.18987058 0.14232296 0.03604529 -0.06927901
0.29735777 0.21485278 -0.09040052 0.04399649 -0.06116262 -0.14338075 0.22956292 -0.23770104
-0.41380167 -0.083096094 -0.12839592 -0.12180871 0.2079801 -0.7985065 0.2862535 -0.31919685
0.06618101 -0.48700088 0.07972957 -0.20498875 -0.10004247 0.0979346 0.19212545 0.0107645225
-0.11405385 0.07660388 0.15234932 0.08592472 0.09651003 -0.4748859 -0.046411894 0.3969052
-0.3882701 0.30396363 -0.11158937 0.42344376 -2.3415284 -0.102765486 0.102360606 0.37488416
0.42671683 0.26192272 -0.319717 -0.63353217 0.3169192 -0.2652945 -0.47693324 -0.60890377
-0.058892094 -0.01410793 -0.1897938 -0.068351 0.18510273 0.21334858 -0.18128741 -0.16831532
-0.22284156 0.44834518 0.5097825 -0.30934048 -0.027358035 -0.17578898 -0.06991766 -0.07337052
0.6283193 -0.0038801895 0.24030101 0.1077606 -0.48181105 0.5824309 -0.21001433 0.2396473
-0.33130538 0.26442194 0.18142657 0.7213214 -0.36994207 -0.5606639 -0.63029957 -0.3283
-0.096094355 0.3729207 0.14697452 -0.012885412 -0.5277881 0.3961052 0.45713755 -0.040159304
0.017812146 0.010023851 -0.14789326 0.42531827 -0.088707015 0.13326512 -0.28940618 -0.10661731
0.042738084 0.14325345 0.4075521 -0.047135152 -1.9118091 -0.31008384 0.41734672 0.052281044
-0.39657325 -0.10233857 0.17799322 0.50104994 -0.15549412 -0.0050920527 0.09611809 0.015091421
-0.09045027 0.4639723 -0.6358064 0.09886534 0.0010781097 -0.15785606 -0.22236969 0.2544357
-0.19829598 -0.31551078 0.2151734 -0.9270692 -0.116079584 -0.27120274 0.1553681 -0.0020564175
0.088675864 -0.05946099 -0.18307234 -0.3954732 0.011111563 -0.5503245 -0.35914516 0.034568366
0.045899235 0.1677755 -0.47454217 -0.33489555 -0.05750537 0.44866216 -0.3311457 -0.20999685
-0.057529394 0.046650033 -0.22013976 -0.15197873 0.09401064 0.21904036 0.2834446 -0.15722863
0.18414661 -0.06418706 -0.06003956 0.7606586 -0.20674609 -0.2719836 0.20115381 0.3143127
-0.12824391 -0.5651448 -0.27057698 -0.19148077 0.03442205 0.17062409 0.12458727 -0.34667662
-0.6729499 -0.62727994 -0.1297469 0.08456377 0.13324128 0.104755886 -0.13334769 0.07687418
-0.43874946 0.11164488 0.028494839 -0.26618388 -0.15890758 -0.07889757 -0.023435583 0.18613848
0.071175694 -0.06009075 1.0633086 -1.30494 0.110917844 0.13970327 0.030645564 0.18291958
0.12846296 -0.031253353 -0.05291273 0.09174514 -0.651943 0.08706497 0.03234695 -0.048214745
-0.25595418 0.05845095 0.048947196 0.045490056 -0.3531114 0.17027828 0.05782779 0.25984183
0.55595976 0.36870095 -0.057896346 -0.22355278 0.051924895 -0.22625029 0.20458587 -0.11170186
0.2474607 0.05786516 0.27265972 0.2270999 0.041656457 -0.31973583 -0.035955653 -0.039277285
00000000: acec c73c 305e 6a3d 3541 123e e053 79be
00000010: 8455 a4bd fc5d 053e dc26 b03b d706 503e
00000020: bd30 f2be b490 31be bbfd 62bd 01a9 b9be
00000030: d568 ae3e 1f7d 053e 3bf8 d8bd 291f 3e3d
00000040: 5c3c 353e 1bda 173e 6a92 84be 58f3 503e
00000050: a848 a73c 4d47 2abc 189d 97bd 960e 68bd
00000060: 2506 b53d d4bf 56bf b45a 1e3d 8137 823e
00000070: 6f6d 42be 1cbd 113e 3aa4 133d 27e2 8dbd
00000080: 473f 983e 5e02 5c3e e823 b9bd aa35 343d
00000090: a885 7abd 67d2 12be 8b12 6b3e e767 73be
000000a0: d0dd d3be 492e aabd 387a 03be d876 f9bd
000000b0: bcf8 543e ec6a 4cbf d28f 923e c56d a3be
000000c0: e989 873d 2e58 f9be 4249 a33d 92e8 51be
000000d0: 11e3 ccbd f091 c83d 89bc 443e ae5d 303c
000000e0: 1195 e9bd 7fe2 9c3d 7601 1c3e 4df9 af3d
000000f0: 0da7 c53d 3f24 f3be 661a 3ebd 2937 cb3e
00000100: 57cb c6be 1fa1 9b3e f888 e4bd 9fcd d83e
00000110: 9adb 15c0 b676 d2bd 70a2 d13d d1f0 bf3e
00000120: a17a da3e bc1a 863e f2b1 a3be 2a2f 22bf
00000130: 3c43 a23e aed4 87be 9830 f4be 1ee1 1bbf
00000140: d638 71bd f224 67bc 4e59 42be 9cfb 8bbd
00000150: 928b 3d3e 0d78 5a3e 68a3 39be da5a 2cbe
00000160: 9430 64be 808d e53e 1b81 023f e061 9ebe
00000170: f51d e0bc 0702 34be fd30 8fbd 4843 96bd
00000180: 89d9 203f c74a 7ebb 7811 763e 97b1 dc3d
00000190: f0af f6be 311a 153f ff0d 57be 1a66 753e
000001a0: dca0 a9be 5062 873e e3c7 393e 85a8 383f
000001b0: 0c69 bdbe ab87 0fbf 505b 21bf f016 a8be
000001c0: 1ecd c4bd 76ef be3e 7d80 163e 561d 53bc
000001d0: 1f1d 07bf 4dce ca3e ef0d ea3e 157e 24bd
000001e0: c7ea 913c 143b 243c 5571 17be 51c3 d93e
000001f0: 06ac b5bd a776 083e 0c2d 94be 2d5a dabd
00000200: 210e 2f3d 08b1 123e abaa d03e ca10 41bd
00000210: 29b6 f4bf 4fc3 9ebe 78ae d53e a624 563d
00000220: a60b cbbe e296 d1bd db43 363e cf44 003f
00000230: da39 1fbe 3cdb a6bb 90d9 c43d 0242 773c
00000240: fe3d b9bd c78d ed3e 35c4 22bf e979 ca3d
00000250: 5c4f 8d3a 05a5 21be e1b4 63be 6545 823e
00000260: 1a0e 4bbe a18a a1be 6a56 5c3e 6854 6dbf
00000270: 22bb edbd 16db 8abe d118 1f3e f6c4 06bb
00000280: b19b b53d 5e8d 73bd 5177 3bbe 777b cabe
00000290: 460d 363c 11e2 0cbf e0e1 b7be 8f97 0d3d
000002a0: d600 3c3d 57cd 2b3e 31f7 f2be 6e77 abbe
000002b0: c08a 6bbd 0cb7 e53e ee8b a9be 6a09 57be
000002c0: f1a3 6bbd 1b14 3f3d 516c 61be 50a0 1bbe
000002d0: a788 c03d 1e4c 603e a71f 913e 8b00 21be
000002e0: ee90 3c3e 8174 83bd 0bec 75bd 86ba 423f
000002f0: 3fb5 53be 6f41 8bbe 44fb 4d3e 98ed a03e
00000300: 5f52 03be 54ad 10bf 1189 8abe 8913 44be
00000310: 23fe 0c3d 15b8 2e3e 9c27 ff3d 997f b1be
00000320: 7246 2cbf 6b95 20bf 5fdc 04be c52f ad3d
00000330: 6770 083e 418a d63d 4c8c 08be 3670 9d3d
00000340: c5a3 e0be 12a6 e43d 026e e93c 4149 88be
00000350: abb8 22be 0d95 a1bd fbfb bfbc 169b 3e3e
00000360: 90c4 913d b821 76bd 7f1a 883f 4608 a7bf
00000370: e528 e33d 600e 0f3e 680c fb3c 454f 3b3e
00000380: cb8b 033e 8403 00bd 05bb 58bd e0e4 bb3d
00000390: bde5 26bf 1e4f b23d 3c7e 043d d37c 45bd
000003a0: 6d0c 83be 436a 6f3d db7c 483d c853 3a3d
000003b0: 04cb b4be 6e5d 2e3e d5dc 6c3d fd09 853e
000003c0: 6153 0e3f 5fc6 bc3e b824 6dbd 05eb 64be
000003d0: 33af 543d 28ae 67be f57e 513e f2c3 e4bd
000003e0: 5666 7d3e 0504 6d3d 0e9a 8b3e e08c 683e
000003f0: f69f 2a3d 6ab4 a3be 3c46 13bd 38e1 20bd

linear_relu_stack.6.bias f4 [64]
0.22670057 -0.4162207 1.8590614 -1.2678819 0.6999989 0.55426157 -0.27604988 2.8410754
0.4677747 -1.0576991 -0.5557405 1.2193516 -0.14177497 1.1499628 1.5067016 0.5043208
0.64045 1.4043455 1.4512038 0.41537282 1.9335164 1.3923432 1.7298915 1.2189764
-0.104209185 1.7867861 0.6519613 1.3232528 -0.38964045 1.1602077 1.1434371 3.2339718
1.4538927 -1.1505796 1.5089219 0.09916206 0.2950746 -0.245865 -0.90202636 -1.5064725
-2.2655756 -0.21790008 1.9934614 0.66285175 -0.45193806 0.054417133 1.3698349 -0.03595278
1.9455296 0.43552807 1.0015254 0.6968752 0.5879966 2.1998997 -5.8030615 2.550848
-0.72917473 -1.0410795 0.3776458 2.1994817 0.30106166 -0.49413264 0.48261514 -0.49729872
00000000: 3224 683e e11a d5be b9f5 ed3f f449 a2bf
00000010: 2133 333f 16e4 0d3f 6956 8dbe 2ed4 3540
00000020: 2a80 ef3e af62 87bf 0245 0ebf b713 9c3f
00000030: 752d 11be fb31 933f 99db c03f 2b1b 013f
00000040: 88f4 233f 98c1 b33f 0cc1 b93f bfab d43e
00000050: 777d f73f 4d38 b23f 166d dd3f 6b07 9c3f
00000060: a06b d5bd 68b5 e43f f0e6 263f 5960 a93f
00000070: f47e c7be b081 943f 265c 923f 65f9 4e40
00000080: 2819 ba3f 3146 93bf 5a24 c13f 7a15 cb3d
00000090: 0514 973e 09c4 7bbe 33eb 66bf 17d4 c0bf
000000a0: 31ff 10c0 3321 5fbe be29 ff3f a7b0 293f
000000b0: 6d64 e7be 80e4 5e3d c056 af3f 3943 13bd
000000c0: 1d07 f93f 89fd de3e fc31 803f 6a66 323f
000000d0: f286 163f 28cb 0c40 aeb2 b9c0 1841 2340
000000e0: 32ab 3abf 1842 85bf ca5a c13e 4fc4 0c40
000000f0: c124 9a3e f4fe fcbe 5519 f73e f09d febe

linear_relu_stack.9.weight f4 [64, 64]
-0.50262016 -0.028259447 0.021571659 -0.36192226 -0.06753564 0.3068688 0.105477534 -0.10503142
-0.13850094 0.05544802 0.34725422 -0.091948606 -0.06644953 -0.083987996 0.14171684 -0.27258676
0.079246774 -0.16305447 0.32894206 0.45576856 -0.120453365 0.66492903 -0.012063269 -0.058814712
0.27770698 -0.16345708 0.018089132 0.12455977 0.08465161 0.13930854 0.086949535 -0.12304351
0.378293 0.05013017 -0.033256438 -0.1770572 0.0032962412 -0.17464872 -0.030209217 -0.12286952
-0.3141105 -0.1774065 -0.043695573 -0.006626194 0.0815484 0.47649667 -0.14690891 0.068182364
-0.3662976 -0.0058608674 -0.12955652 0.012878066 -0.098519444 -0.17771378 -0.22882134 -0.011111754
0.015151527 -0.45669284 -0.2690099 0.19866943 0.057729445 0.09369438 0.0673296 0.15471129
0.027317267 0.06527759 -0.15723245 -0.20468286 0.017777508 -0.0652505 0.0007311333 0.0116249835
-0.03527139 -0.21689108 -0.023935737 -0.050410837 0.16654636 -0.022229314 -0.093975514 -0.20269156
-0.12645681 0.19735602 0.017627852 0.16663568 0.1366999 -0.07609432 0.043230478 0.1285558
0.17385487 -0.05943004 -0.3536912 0.202653 0.09139615 0.09142789 0.036095645 0.08626385
0.04552644 -0.20086055 -0.063516706 0.014704799 -0.15155973 0.012319154 -0.047991067 -0.14885356
-0.019504923 0.112087645 -0.28444153 -0.028969117 0.1984611 0.20873828 0.13049082 0.0077445977
0.18925482 -0.02075718 0.01601383 0.030068778 0.05122558 0.22190809 -0.16890018 -0.13720638
0.0069640502 -0.076236 -0.18083346 0.02593536 0.04252805 -0.22936751 -0.24134453 0.21230952
0.03490847 -0.08752439 -0.13993171 0.11022612 0.062197067 -0.2201578 -0.07351394 -0.026341408
-0.38125432 -0.21805982 0.07016983 -0.08689873 0.2854658 -0.046791986 -0.053205788 0.011198061
0.055705816 -0.060133826 0.083817996 0.33654383 0.0032079357 0.023481486 -1.0799142 0.12717837
0.09708623 0.21617627 -0.022132266 -0.065500006 0.077570654 0.05289534 0.19082148 0.027195742
-0.10875649 0.13363552 0.38789427 0.20532581 -0.099098586 0.18159868 -0.34718123 -0.48746753
-0.13884561 -0.21837367 -0.052599594 0.187982 0.13338305 0.4367211 0.27563795 -0.050026003
0.15585265 0.1011322 0.011236948 0.030867124 -0.17964998 0.14817876 -0.8102833 0.03696347
-0.12350031 0.50001353 0.0028528182 -0.39108256 -0.66190684 -0.18684581 -0.09361957 -0.21312682
0.11754359 -0.28633708 -0.09179235 0.049822673 0.28010187 0.35942048 0.053476427 -0.07314992
0.22186889 0.0008405145 0.05260494 0.11291146 -0.059393447 -0.42969966 -0.23906635 -0.31923532
-0.51100093 0.5755573 0.14116497 0.42881018 -0.5722395 0.27005973 0.21747321 0.059910506
0.054490574 0.056395467 0.0194664 0.1389833 -0.32609057 0.16944776 -0.4986819 0.16808547
0.09427823 -0.70845515 0.60606325 0.18938194 0.25840187 0.257451 0.060892362 -0.687355
-0.49409214 1.0360992 -0.3255399 -0.6130076 0.21139625 0.42188188 -0.32944116 -0.3368764
-0.26908058 -0.20749222 -0.07651213 -0.076008804 0.16641416 -0.35840315 -0.90056473 0.11849772
0.13603073 0.52467614 -0.23589338 0.047056187 0.021153053 -0.31920484 0.23896402 0.38266197
00000000: b7ab 00bf 5b80 e7bc 0cb7 b03c e04d b9be
00000010: 2050 8abd e81d 9d3e 9b04 d83d b71a d7bd
00000020: 31d3 0dbe 771d 633d 4ecb b13e 8d4f bcbd
00000030: b116 88bd e601 acbd 381e 113e 7e90 8bbe
00000040: 224c a23d c0f7 26be 186b a83e 7f5a e93e
00000050: 41b0 f6bd ca38 2a3f 04a5 45bc b2e7 70bd
00000060: 9c2f 8e3e 4b61 27be a92f 943c 3119 ff3d
00000070: d35d ad3d e6a6 0e3e 9912 b23d 3cfe fbbd
00000080: 9faf c13e 4b55 4d3d e737 08bd 7c4e 35be
00000090: c005 583b 1dd7 32be 5279 f7bc 04a3 fbbd
000000a0: 17d3 a0be 0daa 35be 21fa 32bd 8b20 d9bb
000000b0: d902 a73d 5ff7 f33e 4a6f 16be 32a3 8b3d
000000c0: 5c8b bbbe 850c c0bb 77aa 04be 86fe 523c
000000d0: 90c4 c9bd 9afa 35be 2450 6abe 130e 36bc
000000e0: 1c3e 783c a5d3 e9be aabb 89be 0070 4b3e
000000f0: b675 6c3d d7e2 bf3d 1ae4 893d a36c 1e3e
00000100: 76c8 df3c 42b0 853d 8b01 21be 6298 51be
00000110: 23a2 913c 0ea2 85bd 86a9 3f3a b776 3e3c
00000120: bc78 10bd b218 5ebe e114 c4bc 987b 4ebd
00000130: 218b 2a3e 401a b6bc 3c76 c0bd 608e 4fbe
00000140: e57d 01be b217 4a3e 4968 903c 8ba2 2a3e
00000150: 0ffb 0b3e 57d7 9bbd 7112 313d 22a4 033e
00000160: 0307 323e ea6c 73bd 0317 b5be 4584 4f3e
00000170: e82d bb3d 8c3e bb3d 07d9 133d 1aab b03d
00000180: ef79 3a3d 63ae 4dbe 0c15 82bd 66ec 703c
00000190: 7932 1bbe 47d6 493c 4892 44bd 116d 18be
000001a0: cac8 9fbc 358e e53d 52a2 91be a450 edbc
000001b0: 6339 4b3e 7dbf 553e 639f 053e 65c6 fd3b
000001c0: 04cc 413e f60a aabc 702f 833c cc52 f63c
000001d0: ead1 513d e03b 633e 2bf4 2cbe d47f 0cbe
000001e0: b032 e43b 9f21 9cbd 682c 39be 6476 d43c
000001f0: e431 2e3d 51df 6abe 0523 77be ab67 593e
00000200: 2ffc 0e3d fd3f b3bd 424a 0fbe 3bbe e13d
00000210: 5ac2 7e3d 0c71 61be 7a8e 96bd f0c9 d7bc
00000220: c433 c3be 134b 5fbe 33b5 8f3d f6f7 b1bd
00000230: 9328 923e f4a8 3fbd 50ee 59bd 1278 373c
00000240: c82b 643d e34e 76bd c5a8 ab3d 794f ac3e
00000250: 3b3c 523b 3f5c c03c a13a 8abf 0c3b 023e
00000260: 25d5 c63d 505d 5d3e ba4e b5bc de24 86bd
00000270: 5ddd 9e3d c9a8 583d b566 433e 9bc9 de3c
00000280: b9bb debd c0d7 083e 149a c63e ee40 523e
00000290: 33f4 cabd 01f5 393e bdc1 b1be 5895 f9be
000002a0: 8b2d 0ebe 599d 5fbe ac72 57bd 5a7e 403e
000002b0: 9195 083e e899 df3e 6b20 8d3e 11e8 4cbd
000002c0: d697 1f3e 661e cf3d 2d1b 383c 0ddd fc3c
000002d0: 2af6 37be 2cbc 173e ba6e 4fbf 0267 173d
000002e0: bbed fcbd e300 003f 59f6 3a3b f93b c8be
000002f0: ba72 29bf 8254 3fbe 9ebb bfbd eb3d 5abe
00000300: b2ba f03d c69a 92be a1fd bbbd dc12 4c3d
00000310: 8369 8f3e f605 b83e 190a 5b3d a0cf 95bd
00000320: 9931 633e f955 5c3a 4778 573d 203e e73d
00000330: 8b46 73bd 9801 dcbe cfcd 74be d072 a3be
00000340: f5d0 02bf b957 133f 8d8d 103e 028d db3e
00000350: 4a7e 12bf 4545 8a3e 4cb1 5e3e b864 753d
00000360: 8231 5f3d effe 663d 0078 9f3c a351 0e3e
00000370: 58f5 a6be b783 2d3e 3c53 ffbe 991e 2c3e
00000380: f214 c13d 515d 35bf f626 1b3f 57ed 413e
00000390: 404d 843e 9ed0 833e 456a 793d 7ff6 2fbf
000003a0: a5f9 fcbe e69e 843f 2aad a6be 11ee 1cbf
000003b0: 4278 583e e700 d83e 83ac a8be 107b acbe
000003c0: eec4 89be d778 54be 64b2 9cbd 81aa 9bbd
000003d0: 7968 2a3e 9e80 b7be 698b 66bf efae f23d
000003e0: a44b 0b3e 2d51 063f 098e 71be fdbd 403d
000003f0: 2b49 ad3c d16e a3be fcb2 743e 45ec c33e

linear_relu_stack.9.bias f4 [64]
-0.8791606 1.8615584 0.18141659 -1.2377807 -2.107967 -0.00922944 1.0267003 1.3636287
1.2603804 0.77637446 1.5757467 -0.70009834 0.76249737 1.0986449 0.46406683 -0.9307759
1.9571598 1.549834 1.4986142 0.15339045 -0.29016072 1.7259549 0.5546647 0.7075203
0.9583561 0.7030762 -0.37956104 2.147913 0.88431424 0.36746067 1.5218815 0.58398813
0.11274363 -0.51849127 -0.8065742 1.1096071 -0.10112423 2.1549344 0.58390236 -0.9254073
1.7186384 0.81396973 1.0412852 1.3541791 1.2557994 0.5378227 -0.39041537 0.43644738
0.57386464 0.88182086 0.18251425 1.6312029 1.6178278 -0.042771462 1.8956871 -0.06538656
0.51994294 1.8970854 1.2518764 1.3714234 -1.8573697 -0.10798624 0.3269172 1.2328509
00000000: ab10 61bf 8c47 ee3f 45c5 393e 996f 9ebf
00000010: eee8 06c0 1437 17bc ea6a 833f 638b ae3f
00000020: 2554 a13f 7ac0 463f 11b2 c93f a539 33bf
00000030: 0733 433f 65a0 8c3f 2b9a ed3e 5447 6ebf
00000040: 3684 fa3f f660 c63f 97d2 bf3f 6312 1d3e
00000050: f28f 94be 17ec dc3f 81fe 0d3f 0d20 353f
00000060: d356 753f cdfc 333f d355 c2be 6877 0940
00000070: 6b62 623f ce23 bc3e 03cd c23f 3f80 153f
00000080: 22e6 e63d d8bb 04bf a67b 4ebf 9b07 8e3f
00000090: 381a cfbd 72ea 0940 a07a 153f 7ee7 6cbf
000000a0: 58fc db3f 5260 503f d548 853f be55 ad3f
000000b0: 09be a03f c0ae 093f 86e4 c7be 0876 df3e
000000c0: cbe8 123f 03bf 613f 04e5 3a3e 42cb d03f
000000d0: fb14 cf3f 2131 2fbd e0a5 f23f 64e9 85bd
000000e0: fb1a 053f b2d3 f23f 7c3d a03f cd8a af3f
000000f0: 4abe edbf e427 ddbd b161 a73e 0fce 9d3f

linear_relu_stack.12.weight f4 [20, 64]
-0.6156526 -2.0273168 0.6209352 -0.17462046 -1.2549511 0.48248807 0.11333962 0.57452893
-0.36830464 -0.23175816 0.14326164 -0.2070147 -2.7678034 -0.5325588 -0.11546139 -0.10713903
-1.9865322 0.323834 -0.34782708 -2.2963142 0.1256045 0.15860589 -4.01377 -1.5392196
0.45941108 0.3772456 0.16565587 0.82019717 -0.05771466 0.10162019 -0.10853329 -0.174194
-0.19984578 -0.032534145 -0.36507288 -0.08402578 -0.0011485225 -1.4388893 -0.39019054 -0.44810393
0.22922657 -0.10627366 -0.2324355 -0.12907277 -0.14954281 -0.2420218 -10.553164 -0.17187482
0.27241382 0.103558406 -0.38188875 0.32816795 -1.3310026 0.15141614 -1.9531794 -0.05776571
0.054198734 -0.23722267 0.38048127 -0.69523346 -0.14545947 -2.509736 -0.86059135 -1.4300581
-0.04560215 0.2934032 0.018202182 -0.0053013377 0.022246817 -0.041255 -0.13984875 -0.026385056
0.0365829 0.07263333 -0.02023941 -0.024294078 -0.0795329 0.010398173 -0.0965576 0.084399596
0.09224248 0.09336008 0.04305087 0.017258586 -0.061240543 -0.042783886 0.028501898 0.037119124
-0.06897987 -0.03568136 0.029257493 -0.104457766 0.058176793 0.086669914 0.02545192 0.084130734
-0.03587213 0.0671908 -0.050936155 0.08521033 0.055449266 -0.24796744 -0.035833634 -0.038234085
0.08522074 0.042093653 -0.050285086 0.113753885 -0.005963414 -0.23710306 0.18974161 0.07535576
0.10399182 0.109212756 -0.02341006 0.054641612 0.021495072 0.013529431 0.03930624 0.026183821
0.08856861 -0.031730287 0.09768532 0.12399859 0.0051619136 0.10018101 -0.017127631 0.10944853
0.06390461 0.11571063 0.0062567065 0.2994759 0.10568738 -0.1758537 0.04947216 -0.012060827
0.30334756 -0.016019572 -0.15747744 -0.042592593 -0.14528163 -0.13052249 -0.07682324 0.06610593
0.11011809 0.07434632 -0.19921382 0.06391971 0.16883655 0.07376517 0.0031824587 0.10314332
-0.07817837 -0.2321867 0.07230862 -0.11302924 -0.0077890987 -0.061027166 0.09261735 -0.13124906
-0.027936397 0.08308278 0.02776797 -0.23025188 0.104634315 0.05930041 -0.039324045 -0.11219002
-0.20905636 0.08162157 0.19288827 0.059697717 -0.2031296 0.05699428 0.06579647 -0.056797393
-0.013851013 0.16941799 0.018681856 0.20451757 -0.12200601 -0.016197627 -0.05949466 0.12795062
0.044611737 -0.14683808 0.08834152 0.021131288 -0.056671914 -0.19486709 -0.061957568 0.038317237
-0.09186233 -0.45490187 0.06698994 0.005741392 0.23704417 -0.054188736 0.27611706 -0.20882015
0.078886375 0.07219239 -0.021594923 -0.07608484 -0.017757824 -0.10242126 -0.12698013 -0.0122542
-0.041722927 0.08831965 0.10634084 0.038146798 -0.06201443 -0.063215874 -0.0054340977 -0.11366277
-0.005174985 -0.019274872 -0.32878444 -0.032561872 -0.010573158 0.007139902 0.20882893 0.29420012
-0.047566522 0.061152272 0.018092938 -0.006969726 0.07779742 0.19195785 -0.90301293 0.073129766
0.075993836 -0.03659519 -0.4928401 0.054374054 0.2917978 -0.0056985375 0.06357397 0.08370576
-0.4038063 -0.04917192 -0.61398596 -0.027320614 0.046560004 -0.20131831 0.4243696 0.013777803
0.0579176 0.071186595 0.043984856 -1.111921 -0.05474275 0.073513746 -0.09195853 -0.01454204
00000000: 699b 1dbf 8fbf 01c0 9cf5 1e3f b5cf 32be
00000010: 3da2 a0bf ad08 f73e 9a1e e83d 5414 133f
00000020: 6d92 bcbe 0352 6dbe 2eb3 123e a9fb 53be
00000030: b123 31c0 c655 08bf 0577 ecbd b56b dbbd
00000040: b046 febf 92cd a53e 6416 b2be d0f6 12c0
00000050: 779e 003e 9569 223e ce70 80c0 2605 c5bf
00000060: ee37 eb3e 5626 c13e b1a1 293e 71f8 513f
00000070: 3566 6cbd 3f1e d03d b446 debd e95f 32be
00000080: 5fa4 4cbe 8642 05bd d5ea babe b515 acbd
00000090: 058a 96ba 862d b8bf 0ec7 c7be e16d e5be
000000a0: 5fba 6a3e 01a6 d9bd 9203 6ebe a72b 04be
000000b0: c021 19be 90d4 77be c2d9 28c1 f4ff 2fbe
000000c0: d379 8b3e 6e16 d43d ec86 c3be a105 a83e
000000d0: 4b5e aabf d50c 1b3e c801 fabf bd9b 6cbd
000000e0: 7eff 5d3d 80ea 72be 71ce c23e d2fa 31bf
000000f0: 54f3 14be 849f 20c0 b74f 5cbf 250c b7bf
00000100: 52c9 3abd f238 963e be1c 953c d8b6 adbb
00000110: f53e b63c 01fb 28bd 8334 0fbe 7925 d8bc
00000120: f3d7 153d c9c0 943d 1fcd a5bc 6004 c7bc
00000130: 25e2 a2bd 195d 2a3c febf c5bd b2d9 ac3d
00000140: a0e9 bc3d 9233 bf3d 1c56 303d e161 8d3c
00000150: 5dd7 7abd 283e 2fbd d07c e93c 390a 183d
00000160: 5145 8dbd 9e26 12bd 69ad ef3c f4ed d5bd
00000170: ca4a 6e3d ff7f b13d 8c80 d03c bc4c ac3d
00000180: a8ee 12bd 559b 893d 6ea2 50bd c182 ae3d
00000190: c51e 633d 2deb 7dbe 4ac6 12bd 589b 1cbd
000001a0: 3688 ae3d 656a 2c3d bcf7 4dbd ccf7 e83d
000001b0: be68 c3bb 25cb 72be a04b 423e 1f54 9a3d
000001c0: aaf9 d43d f0aa df3d 74c6 bfbc e2cf 5f3d
000001d0: 6f16 b03c 8caa 5d3c 94ff 203d 747f d63c
000001e0: 7663 b53d 9ef7 01bd 3e0f c83d f9f2 fd3d
000001f0: 4525 a93b b42b cd3d 3f4f 8cbc 8d26 e03d
00000200: 6ce0 823d b2f9 ec3d 0f05 cd3b e854 993e
00000210: a072 d83d fe12 34be 52a3 4a3d c69a 45bc
00000220: 5f50 9b3e 7a3b 83bc c441 21be 9275 2ebd
00000230: b5c4 14be b0a7 05be 8155 9dbd 8c62 873d
00000240: 9885 e13d e242 983d b5fe 4bbe 56e8 823d
00000250: 7de3 2c3e 3212 973d cc90 503b ce3c d33d
00000260: fb1b a0bd 5ac2 6dbe 8b16 943d e07b e7bd
00000270: b23b ffbb 9ff7 79bd 2aae bd3d 2766 06be
00000280: dfda e4bc 4e27 aa3d a779 e33c 26c7 6bbe
00000290: 844a d63d fde4 723d 4012 21bd e2c3 e5bd
000002a0: df12 56be 3629 a73d 8184 453e 9885 743d
000002b0: 3501 50be d672 693d 4dc0 863d 62a4 68bd
000002c0: 5cef 62bc e97b 2d3e b10a 993c 0e6d 513e
000002d0: 49de f9bd e3b0 84bc acb0 73bd 7d05 033e
000002e0: ccba 363d b95c 16be 66ec b43d 861b ad3c
000002f0: cf20 68bd 3d8b 47be 38c7 7dbd 89f2 1c3d
00000300: 5122 bcbd e6e8 e8be 0632 893d 4922 bc3b
00000310: b5bb 723e 02f5 5dbd 375f 8d3e f3d4 55be
00000320: 2e8f a13d 9bd9 933d d6e7 b0bc 5ed2 9bbd
00000330: db78 91bc 3dc2 d1bd 1407 02be d7c5 48bc
00000340: a9e5 2abd efe0 b43d 3ac9 d93d d13f 1c3d
00000350: d802 7ebd 5377 81bd 8410 b2bb 07c8 e8bd
00000360: ec92 a9bb 56e6 9dbc 6f56 a8be 995f 05bd
00000370: 0a3b 2dbc d7f5 e93b 40d7 553e 66a1 963e
00000380: 1dd5 42bd ce7a 7a3d a437 943c 4d62 e4bb
00000390: 4154 9f3d 9990 443e db2b 67bf 0fc5 953d
000003a0: a8a2 9b3d d7e4 15bd 8a55 fcbe 54b7 5e3d
000003b0: 8566 953e ccba babb 1233 823d ed6d ab3d
000003c0: b3bf cebe 7f68 49bd 2f2e 1dbf 7bcf dfbc
000003d0: b4b5 3e3d 6326 4ebe f946 d93e 4bbc 613c
000003e0: 013b 6d3d 47ca 913d 7729 343d 6d53 8ebf
000003f0: ef39 60bd 608e 963d c154 bcbd bd41 6ebc

linear_relu_stack.12.bias f4 [20]
2.5296502 -0.63992804 0.37189746 -0.41867426 -0.33602282 -0.3575679 -0.101970695 0.4884872
-0.009754018 0.47060764 -0.09838223 -0.18517165 -0.27369192 0.08439367 -0.044845693 -0.12630159
0.099168815 0.04297214 0.18067499 0.3876414
00000000: cae5 2140 53d2 23bf 5869 be3e 795c d6be
00000010: 2f0b acbe 2413 b7be 03d6 d0bd ff1a fa3e
00000020: 51cf 1fbc 7cf3 f03e 9f7c c9bd a39d 3dbe
00000030: 5921 8cbe 97d6 ac3d 1eb0 37bd 3455 01be
00000040: 0519 cb3d 8e03 303d dd02 393e ef78 c63e
